…
2022-04-09 02:50:00,820   G-Buffer encoder type : GBufferEncoderType.ENCODER
2022-04-09 02:50:00,820   G-Buffer encoder norms: residual
2022-04-09 02:50:00,820   G-Buffer norm         : RAD
2022-04-09 02:50:00,820   Transition/Fusion norm: group
2022-04-09 02:50:00,821   # Classes             : 10
2022-04-09 02:50:00,821   # G-Buffer channels   : 13
2022-04-09 02:50:00,821 Creating G-bufferEncoder with residual norm for 10 classes, 13 G-buffers and 4 branches.
2022-04-09 02:50:00,853   Creating joint encoder for 4 branches:
2022-04-09 02:50:00,860   0: Sequential(
  (0): ResBlock(
    (conv): Sequential(
      (0): ReplicationPad2d((1, 1, 1, 1))
      (1): Conv2d(128, 128, kernel_size=(3, 3), stride=(1, 1))
      (2): ReLU(inplace=True)
      (3): ReplicationPad2d((1, 1, 1, 1))
      (4): Conv2d(128, 128, kernel_size=(3, 3), stride=(1, 1))
    )
    (relu): ReLU(inplace=True)
  )
  (1): ResBlock(
    (conv): Sequential(
      (0): ReplicationPad2d((1, 1, 1, 1))
      (1): Conv2d(128, 128, kernel_size=(3, 3), stride=(1, 1))
      (2): ReLU(inplace=True)
      (3): ReplicationPad2d((1, 1, 1, 1))
      (4): Conv2d(128, 128, kernel_size=(3, 3), stride=(1, 1))
    )
    (relu): ReLU(inplace=True)
  )
)
2022-04-09 02:50:00,866   1: Sequential(
  (0): ResBlock(
    (conv): Sequential(
      (0): ReplicationPad2d((1, 1, 1, 1))
      (1): Conv2d(128, 128, kernel_size=(3, 3), stride=(2, 2))
      (2): ReLU(inplace=True)
      (3): ReplicationPad2d((1, 1, 1, 1))
      (4): Conv2d(128, 128, kernel_size=(3, 3), stride=(1, 1))
    )
    (down): Sequential(
      (0): ReplicationPad2d((1, 1, 1, 1))
      (1): Conv2d(128, 128, kernel_size=(3, 3), stride=(2, 2))
      (2): ReLU(inplace=True)
    )
    (relu): ReLU(inplace=True)
  )
  (1): ResBlock(
    (conv): Sequential(
      (0): ReplicationPad2d((1, 1, 1, 1))
      (1): Conv2d(128, 128, kernel_size=(3, 3), stride=(1, 1))
      (2): ReLU(inplace=True)
      (3): ReplicationPad2d((1, 1, 1, 1))
      (4): Conv2d(128, 128, kernel_size=(3, 3), stride=(1, 1))
    )
    (relu): ReLU(inplace=True)
  )
)
2022-04-09 02:50:00,874   2: Sequential(
  (0): ResBlock(
    (conv): Sequential(
      (0): ReplicationPad2d((1, 1, 1, 1))
      (1): Conv2d(128, 128, kernel_size=(3, 3), stride=(2, 2))
      (2): ReLU(inplace=True)
      (3): ReplicationPad2d((1, 1, 1, 1))
      (4): Conv2d(128, 128, kernel_size=(3, 3), stride=(1, 1))
    )
    (down): Sequential(
      (0): ReplicationPad2d((1, 1, 1, 1))
      (1): Conv2d(128, 128, kernel_size=(3, 3), stride=(2, 2))
      (2): ReLU(inplace=True)
    )
    (relu): ReLU(inplace=True)
  )
  (1): ResBlock(
    (conv): Sequential(
      (0): ReplicationPad2d((1, 1, 1, 1))
      (1): Conv2d(128, 128, kernel_size=(3, 3), stride=(1, 1))
      (2): ReLU(inplace=True)
      (3): ReplicationPad2d((1, 1, 1, 1))
      (4): Conv2d(128, 128, kernel_size=(3, 3), stride=(1, 1))
    )
    (relu): ReLU(inplace=True)
  )
)
2022-04-09 02:50:00,880   3: Sequential(
  (0): ResBlock(
    (conv): Sequential(
      (0): ReplicationPad2d((1, 1, 1, 1))
      (1): Conv2d(128, 128, kernel_size=(3, 3), stride=(2, 2))
      (2): ReLU(inplace=True)
      (3): ReplicationPad2d((1, 1, 1, 1))
      (4): Conv2d(128, 128, kernel_size=(3, 3), stride=(1, 1))
    )
    (down): Sequential(
      (0): ReplicationPad2d((1, 1, 1, 1))
      (1): Conv2d(128, 128, kernel_size=(3, 3), stride=(2, 2))
      (2): ReLU(inplace=True)
    )
    (relu): ReLU(inplace=True)
  )
  (1): ResBlock(
    (conv): Sequential(
      (0): ReplicationPad2d((1, 1, 1, 1))
      (1): Conv2d(128, 128, kernel_size=(3, 3), stride=(1, 1))
      (2): ReLU(inplace=True)
      (3): ReplicationPad2d((1, 1, 1, 1))
      (4): Conv2d(128, 128, kernel_size=(3, 3), stride=(1, 1))
    )
    (relu): ReLU(inplace=True)
  )
)
2022-04-09 02:50:00,880   Stage 1
2022-04-09 02:50:00,880   {'NUM_MODULES': 1, 'NUM_BRANCHES': 1, 'NUM_BLOCKS': [4], 'NUM_CHANNELS': [16], 'BLOCK': 'BASIC', 'FUSE_METHOD': 'SUM'}
2022-04-09 02:50:01,243   Creating projection discriminator with 4 layers and group norm.
2022-04-09 02:50:01,265   Creating projection discriminator with 4 layers and group norm.
…
2022-04-09 02:50:01,351   Creating projection discriminator with 4 layers and group norm.
2022-04-09 02:50:01,389   Creating projection discriminator with 4 layers and group norm.
2022-04-09 02:50:01,428   Creating projection discriminator with 4 layers and group norm.
2022-04-09 02:50:01,465   Creating projection discriminator with 4 layers and group norm.
2022-04-09 02:50:01,509   Creating projection discriminator with 4 layers and group norm.
2022-04-09 02:50:01,553   Creating projection discriminator with 4 layers and group norm.
2022-04-09 02:50:01,597 [ProjectionDiscriminator(
  (model): Sequential(
    (0): ReplicationPad2d((1, 1, 1, 1))
    (1): Conv2d(64, 64, kernel_size=(3, 3), stride=(2, 2), bias=False)
    (2): GroupNorm(8, 64, eps=1e-05, affine=True)
    (3): LeakyReLU(negative_slope=0.2, inplace=True)
    (4): ReplicationPad2d((1, 1, 1, 1))
    (5): Conv2d(64, 128, kernel_size=(3, 3), stride=(2, 2), bias=False)
    (6): GroupNorm(8, 128, eps=1e-05, affine=True)
    (7): LeakyReLU(negative_slope=0.2, inplace=True)
    (8): ReplicationPad2d((1, 1, 1, 1))
    (9): Conv2d(128, 256, kernel_size=(3, 3), stride=(2, 2), bias=False)
    (10): GroupNorm(8, 256, eps=1e-05, affine=True)
    (11): LeakyReLU(negative_slope=0.2, inplace=True)
    (12): ReplicationPad2d((1, 1, 1, 1))
    (13): Conv2d(256, 256, kernel_size=(3, 3), stride=(2, 2), bias=False)
    (14): GroupNorm(8, 256, eps=1e-05, affine=True)
    (15): LeakyReLU(negative_slope=0.2, inplace=True)
  )
  (out): Sequential(
    (0): Conv2d(256, 256, kernel_size=(3, 3), stride=(1, 1), padding=(1, 1))
    (1): LeakyReLU(negative_slope=0.2, inplace=True)
    (2): Conv2d(256, 1, kernel_size=(1, 1), stride=(1, 1))
  )
  (embedding): Embedding(194, 256)
), ProjectionDiscriminator(
  (model): Sequential(
    (0): ReplicationPad2d((1, 1, 1, 1))
    (1): Conv2d(64, 64, kernel_size=(3, 3), stride=(2, 2), bias=False)
    (2): GroupNorm(8, 64, eps=1e-05, affine=True)
    (3): LeakyReLU(negative_slope=0.2, inplace=True)
    (4): ReplicationPad2d((1, 1, 1, 1))
    (5): Conv2d(64, 128, kernel_size=(3, 3), stride=(2, 2), bias=False)
    (6): GroupNorm(8, 128, eps=1e-05, affine=True)
    (7): LeakyReLU(negative_slope=0.2, inplace=True)
    (8): ReplicationPad2d((1, 1, 1, 1))
    (9): Conv2d(128, 256, kernel_size=(3, 3), stride=(2, 2), bias=False)
    (10): GroupNorm(8, 256, eps=1e-05, affine=True)
    (11): LeakyReLU(negative_slope=0.2, inplace=True)
    (12): ReplicationPad2d((1, 1, 1, 1))
    (13): Conv2d(256, 256, kernel_size=(3, 3), stride=(2, 2), bias=False)
    (14): GroupNorm(8, 256, eps=1e-05, affine=True)
    (15): LeakyReLU(negative_slope=0.2, inplace=True)
  )
  (out): Sequential(
    (0): Conv2d(256, 256, kernel_size=(3, 3), stride=(1, 1), padding=(1, 1))
    (1): LeakyReLU(negative_slope=0.2, inplace=True)
    (2): Conv2d(256, 1, kernel_size=(1, 1), stride=(1, 1))
  )
  (embedding): Embedding(194, 256)
), ProjectionDiscriminator(
  (model): Sequential(
    (0): ReplicationPad2d((1, 1, 1, 1))
    (1): Conv2d(128, 128, kernel_size=(3, 3), stride=(2, 2), bias=False)
    (2): GroupNorm(8, 128, eps=1e-05, affine=True)
    (3): LeakyReLU(negative_slope=0.2, inplace=True)
    (4): ReplicationPad2d((1, 1, 1, 1))
    (5): Conv2d(128, 256, kernel_size=(3, 3), stride=(2, 2), bias=False)
    (6): GroupNorm(8, 256, eps=1e-05, affine=True)
    (7): LeakyReLU(negative_slope=0.2, inplace=True)
    (8): ReplicationPad2d((1, 1, 1, 1))
    (9): Conv2d(256, 256, kernel_size=(3, 3), stride=(2, 2), bias=False)
    (10): GroupNorm(8, 256, eps=1e-05, affine=True)
    (11): LeakyReLU(negative_slope=0.2, inplace=True)
    (12): ReplicationPad2d((1, 1, 1, 1))
    (13): Conv2d(256, 256, kernel_size=(3, 3), stride=(1, 1), bias=False)
    (14): GroupNorm(8, 256, eps=1e-05, affine=True)
    (15): LeakyReLU(negative_slope=0.2, inplace=True)
  )
  (out): Sequential(
    (0): Conv2d(256, 256, kernel_size=(3, 3), stride=(1, 1), padding=(1, 1))
    (1): LeakyReLU(negative_slope=0.2, inplace=True)
    (2): Conv2d(256, 1, kernel_size=(1, 1), stride=(1, 1))
  )
  (embedding): Embedding(194, 256)
), ProjectionDiscriminator(
  (model): Sequential(
    (0): ReplicationPad2d((1, 1, 1, 1))
    (1): Conv2d(128, 128, kernel_size=(3, 3), stride=(2, 2), bias=False)
    (2): GroupNorm(8, 128, eps=1e-05, affine=True)
    (3): LeakyReLU(negative_slope=0.2, inplace=True)
    (4): ReplicationPad2d((1, 1, 1, 1))
    (5): Conv2d(128, 256, kernel_size=(3, 3), stride=(2, 2), bias=False)
    (6): GroupNorm(8, 256, eps=1e-05, affine=True)
    (7): LeakyReLU(negative_slope=0.2, inplace=True)
    (8): ReplicationPad2d((1, 1, 1, 1))
    (9): Conv2d(256, 256, kernel_size=(3, 3), stride=(2, 2), bias=False)
    (10): GroupNorm(8, 256, eps=1e-05, affine=True)
    (11): LeakyReLU(negative_slope=0.2, inplace=True)
    (12): ReplicationPad2d((1, 1, 1, 1))
    (13): Conv2d(256, 256, kernel_size=(3, 3), stride=(1, 1), bias=False)
    (14): GroupNorm(8, 256, eps=1e-05, affine=True)
    (15): LeakyReLU(negative_slope=0.2, inplace=True)
  )
  (out): Sequential(
    (0): Conv2d(256, 256, kernel_size=(3, 3), stride=(1, 1), padding=(1, 1))
    (1): LeakyReLU(negative_slope=0.2, inplace=True)
    (2): Conv2d(256, 1, kernel_size=(1, 1), stride=(1, 1))
  )
  (embedding): Embedding(194, 256)
), ProjectionDiscriminator(
  (model): Sequential(
    (0): ReplicationPad2d((1, 1, 1, 1))
    (1): Conv2d(256, 256, kernel_size=(3, 3), stride=(2, 2), bias=False)
    (2): GroupNorm(8, 256, eps=1e-05, affine=True)
    (3): LeakyReLU(negative_slope=0.2, inplace=True)
    (4): ReplicationPad2d((1, 1, 1, 1))
    (5): Conv2d(256, 256, kernel_size=(3, 3), stride=(2, 2), bias=False)
    (6): GroupNorm(8, 256, eps=1e-05, affine=True)
    (7): LeakyReLU(negative_slope=0.2, inplace=True)
    (8): ReplicationPad2d((1, 1, 1, 1))
    (9): Conv2d(256, 256, kernel_size=(3, 3), stride=(1, 1), bias=False)
    (10): GroupNorm(8, 256, eps=1e-05, affine=True)
    (11): LeakyReLU(negative_slope=0.2, inplace=True)
    (12): ReplicationPad2d((1, 1, 1, 1))
    (13): Conv2d(256, 256, kernel_size=(3, 3), stride=(1, 1), bias=False)
    (14): GroupNorm(8, 256, eps=1e-05, affine=True)
    (15): LeakyReLU(negative_slope=0.2, inplace=True)
  )
  (out): Sequential(
    (0): Conv2d(256, 256, kernel_size=(3, 3), stride=(1, 1), padding=(1, 1))
    (1): LeakyReLU(negative_slope=0.2, inplace=True)
    (2): Conv2d(256, 1, kernel_size=(1, 1), stride=(1, 1))
  )
  (embedding): Embedding(194, 256)
), ProjectionDiscriminator(
  (model): Sequential(
    (0): ReplicationPad2d((1, 1, 1, 1))
    (1): Conv2d(256, 256, kernel_size=(3, 3), stride=(2, 2), bias=False)
    (2): GroupNorm(8, 256, eps=1e-05, affine=True)
    (3): LeakyReLU(negative_slope=0.2, inplace=True)
    (4): ReplicationPad2d((1, 1, 1, 1))
    (5): Conv2d(256, 256, kernel_size=(3, 3), stride=(2, 2), bias=False)
    (6): GroupNorm(8, 256, eps=1e-05, affine=True)
    (7): LeakyReLU(negative_slope=0.2, inplace=True)
    (8): ReplicationPad2d((1, 1, 1, 1))
    (9): Conv2d(256, 256, kernel_size=(3, 3), stride=(1, 1), bias=False)
    (10): GroupNorm(8, 256, eps=1e-05, affine=True)
    (11): LeakyReLU(negative_slope=0.2, inplace=True)
    (12): ReplicationPad2d((1, 1, 1, 1))
    (13): Conv2d(256, 256, kernel_size=(3, 3), stride=(1, 1), bias=False)
    (14): GroupNorm(8, 256, eps=1e-05, affine=True)
    (15): LeakyReLU(negative_slope=0.2, inplace=True)
  )
  (out): Sequential(
    (0): Conv2d(256, 256, kernel_size=(3, 3), stride=(1, 1), padding=(1, 1))
    (1): LeakyReLU(negative_slope=0.2, inplace=True)
    (2): Conv2d(256, 1, kernel_size=(1, 1), stride=(1, 1))
  )
  (embedding): Embedding(194, 256)
), ProjectionDiscriminator(
  (model): Sequential(
    (0): ReplicationPad2d((1, 1, 1, 1))
    (1): Conv2d(256, 256, kernel_size=(3, 3), stride=(2, 2), bias=False)
    (2): GroupNorm(8, 256, eps=1e-05, affine=True)
    (3): LeakyReLU(negative_slope=0.2, inplace=True)
    (4): ReplicationPad2d((1, 1, 1, 1))
    (5): Conv2d(256, 256, kernel_size=(3, 3), stride=(2, 2), bias=False)
    (6): GroupNorm(8, 256, eps=1e-05, affine=True)
    (7): LeakyReLU(negative_slope=0.2, inplace=True)
    (8): ReplicationPad2d((1, 1, 1, 1))
    (9): Conv2d(256, 256, kernel_size=(3, 3), stride=(1, 1), bias=False)
    (10): GroupNorm(8, 256, eps=1e-05, affine=True)
    (11): LeakyReLU(negative_slope=0.2, inplace=True)
    (12): ReplicationPad2d((1, 1, 1, 1))
    (13): Conv2d(256, 256, kernel_size=(3, 3), stride=(1, 1), bias=False)
    (14): GroupNorm(8, 256, eps=1e-05, affine=True)
    (15): LeakyReLU(negative_slope=0.2, inplace=True)
  )
  (out): Sequential(
    (0): Conv2d(256, 256, kernel_size=(3, 3), stride=(1, 1), padding=(1, 1))
    (1): LeakyReLU(negative_slope=0.2, inplace=True)
    (2): Conv2d(256, 1, kernel_size=(1, 1), stride=(1, 1))
  )
  (embedding): Embedding(194, 256)
), ProjectionDiscriminator(
  (model): Sequential(
    (0): ReplicationPad2d((1, 1, 1, 1))
    (1): Conv2d(512, 256, kernel_size=(3, 3), stride=(2, 2), bias=False)
    (2): GroupNorm(8, 256, eps=1e-05, affine=True)
    (3): LeakyReLU(negative_slope=0.2, inplace=True)
    (4): ReplicationPad2d((1, 1, 1, 1))
    (5): Conv2d(256, 256, kernel_size=(3, 3), stride=(1, 1), bias=False)
    (6): GroupNorm(8, 256, eps=1e-05, affine=True)
    (7): LeakyReLU(negative_slope=0.2, inplace=True)
    (8): ReplicationPad2d((1, 1, 1, 1))
    (9): Conv2d(256, 256, kernel_size=(3, 3), stride=(1, 1), bias=False)
    (10): GroupNorm(8, 256, eps=1e-05, affine=True)
    (11): LeakyReLU(negative_slope=0.2, inplace=True)
    (12): ReplicationPad2d((1, 1, 1, 1))
    (13): Conv2d(256, 256, kernel_size=(3, 3), stride=(1, 1), bias=False)
    (14): GroupNorm(8, 256, eps=1e-05, affine=True)
    (15): LeakyReLU(negative_slope=0.2, inplace=True)
  )
  (out): Sequential(
    (0): Conv2d(256, 256, kernel_size=(3, 3), stride=(1, 1), padding=(1, 1))
    (1): LeakyReLU(negative_slope=0.2, inplace=True)
    (2): Conv2d(256, 1, kernel_size=(1, 1), stride=(1, 1))
  )
  (embedding): Embedding(194, 256)
), ProjectionDiscriminator(
  (model): Sequential(
    (0): ReplicationPad2d((1, 1, 1, 1))
    (1): Conv2d(512, 256, kernel_size=(3, 3), stride=(2, 2), bias=False)
    (2): GroupNorm(8, 256, eps=1e-05, affine=True)
    (3): LeakyReLU(negative_slope=0.2, inplace=True)
    (4): ReplicationPad2d((1, 1, 1, 1))
    (5): Conv2d(256, 256, kernel_size=(3, 3), stride=(1, 1), bias=False)
    (6): GroupNorm(8, 256, eps=1e-05, affine=True)
    (7): LeakyReLU(negative_slope=0.2, inplace=True)
    (8): ReplicationPad2d((1, 1, 1, 1))
    (9): Conv2d(256, 256, kernel_size=(3, 3), stride=(1, 1), bias=False)
    (10): GroupNorm(8, 256, eps=1e-05, affine=True)
    (11): LeakyReLU(negative_slope=0.2, inplace=True)
    (12): ReplicationPad2d((1, 1, 1, 1))
    (13): Conv2d(256, 256, kernel_size=(3, 3), stride=(1, 1), bias=False)
    (14): GroupNorm(8, 256, eps=1e-05, affine=True)
    (15): LeakyReLU(negative_slope=0.2, inplace=True)
  )
  (out): Sequential(
    (0): Conv2d(256, 256, kernel_size=(3, 3), stride=(1, 1), padding=(1, 1))
    (1): LeakyReLU(negative_slope=0.2, inplace=True)
    (2): Conv2d(256, 1, kernel_size=(1, 1), stride=(1, 1))
  )
  (embedding): Embedding(194, 256)
), ProjectionDiscriminator(
  (model): Sequential(
    (0): ReplicationPad2d((1, 1, 1, 1))
    (1): Conv2d(512, 256, kernel_size=(3, 3), stride=(2, 2), bias=False)
    (2): GroupNorm(8, 256, eps=1e-05, affine=True)
    (3): LeakyReLU(negative_slope=0.2, inplace=True)
    (4): ReplicationPad2d((1, 1, 1, 1))
    (5): Conv2d(256, 256, kernel_size=(3, 3), stride=(1, 1), bias=False)
    (6): GroupNorm(8, 256, eps=1e-05, affine=True)
    (7): LeakyReLU(negative_slope=0.2, inplace=True)
    (8): ReplicationPad2d((1, 1, 1, 1))
    (9): Conv2d(256, 256, kernel_size=(3, 3), stride=(1, 1), bias=False)
    (10): GroupNorm(8, 256, eps=1e-05, affine=True)
    (11): LeakyReLU(negative_slope=0.2, inplace=True)
    (12): ReplicationPad2d((1, 1, 1, 1))
    (13): Conv2d(256, 256, kernel_size=(3, 3), stride=(1, 1), bias=False)
    (14): GroupNorm(8, 256, eps=1e-05, affine=True)
    (15): LeakyReLU(negative_slope=0.2, inplace=True)
  )
  (out): Sequential(
    (0): Conv2d(256, 256, kernel_size=(3, 3), stride=(1, 1), padding=(1, 1))
    (1): LeakyReLU(negative_slope=0.2, inplace=True)
    (2): Conv2d(256, 1, kernel_size=(1, 1), stride=(1, 1))
  )
  (embedding): Embedding(194, 256)
)]
2022-04-09 02:50:01,600 Discriminators: ModuleList(
  (0): ProjectionDiscriminator(
    (model): Sequential(
      (0): ReplicationPad2d((1, 1, 1, 1))
      (1): Conv2d(64, 64, kernel_size=(3, 3), stride=(2, 2), bias=False)
      (2): GroupNorm(8, 64, eps=1e-05, affine=True)
      (3): LeakyReLU(negative_slope=0.2, inplace=True)
      (4): ReplicationPad2d((1, 1, 1, 1))
      (5): Conv2d(64, 128, kernel_size=(3, 3), stride=(2, 2), bias=False)
      (6): GroupNorm(8, 128, eps=1e-05, affine=True)
      (7): LeakyReLU(negative_slope=0.2, inplace=True)
      (8): ReplicationPad2d((1, 1, 1, 1))
      (9): Conv2d(128, 256, kernel_size=(3, 3), stride=(2, 2), bias=False)
      (10): GroupNorm(8, 256, eps=1e-05, affine=True)
      (11): LeakyReLU(negative_slope=0.2, inplace=True)
      (12): ReplicationPad2d((1, 1, 1, 1))
      (13): Conv2d(256, 256, kernel_size=(3, 3), stride=(2, 2), bias=False)
      (14): GroupNorm(8, 256, eps=1e-05, affine=True)
      (15): LeakyReLU(negative_slope=0.2, inplace=True)
    )
    (out): Sequential(
      (0): Conv2d(256, 256, kernel_size=(3, 3), stride=(1, 1), padding=(1, 1))
      (1): LeakyReLU(negative_slope=0.2, inplace=True)
      (2): Conv2d(256, 1, kernel_size=(1, 1), stride=(1, 1))
    )
    (embedding): Embedding(194, 256)
  )
  (1): ProjectionDiscriminator(
    (model): Sequential(
      (0): ReplicationPad2d((1, 1, 1, 1))
      (1): Conv2d(64, 64, kernel_size=(3, 3), stride=(2, 2), bias=False)
      (2): GroupNorm(8, 64, eps=1e-05, affine=True)
      (3): LeakyReLU(negative_slope=0.2, inplace=True)
      (4): ReplicationPad2d((1, 1, 1, 1))
      (5): Conv2d(64, 128, kernel_size=(3, 3), stride=(2, 2), bias=False)
      (6): GroupNorm(8, 128, eps=1e-05, affine=True)
      (7): LeakyReLU(negative_slope=0.2, inplace=True)
      (8): ReplicationPad2d((1, 1, 1, 1))
      (9): Conv2d(128, 256, kernel_size=(3, 3), stride=(2, 2), bias=False)
      (10): GroupNorm(8, 256, eps=1e-05, affine=True)
      (11): LeakyReLU(negative_slope=0.2, inplace=True)
      (12): ReplicationPad2d((1, 1, 1, 1))
      (13): Conv2d(256, 256, kernel_size=(3, 3), stride=(2, 2), bias=False)
      (14): GroupNorm(8, 256, eps=1e-05, affine=True)
      (15): LeakyReLU(negative_slope=0.2, inplace=True)
    )
    (out): Sequential(
      (0): Conv2d(256, 256, kernel_size=(3, 3), stride=(1, 1), padding=(1, 1))
      (1): LeakyReLU(negative_slope=0.2, inplace=True)
      (2): Conv2d(256, 1, kernel_size=(1, 1), stride=(1, 1))
    )
    (embedding): Embedding(194, 256)
  )
  (2): ProjectionDiscriminator(
    (model): Sequential(
      (0): ReplicationPad2d((1, 1, 1, 1))
      (1): Conv2d(128, 128, kernel_size=(3, 3), stride=(2, 2), bias=False)
      (2): GroupNorm(8, 128, eps=1e-05, affine=True)
      (3): LeakyReLU(negative_slope=0.2, inplace=True)
      (4): ReplicationPad2d((1, 1, 1, 1))
      (5): Conv2d(128, 256, kernel_size=(3, 3), stride=(2, 2), bias=False)
      (6): GroupNorm(8, 256, eps=1e-05, affine=True)
      (7): LeakyReLU(negative_slope=0.2, inplace=True)
      (8): ReplicationPad2d((1, 1, 1, 1))
      (9): Conv2d(256, 256, kernel_size=(3, 3), stride=(2, 2), bias=False)
      (10): GroupNorm(8, 256, eps=1e-05, affine=True)
      (11): LeakyReLU(negative_slope=0.2, inplace=True)
      (12): ReplicationPad2d((1, 1, 1, 1))
      (13): Conv2d(256, 256, kernel_size=(3, 3), stride=(1, 1), bias=False)
      (14): GroupNorm(8, 256, eps=1e-05, affine=True)
      (15): LeakyReLU(negative_slope=0.2, inplace=True)
    )
    (out): Sequential(
      (0): Conv2d(256, 256, kernel_size=(3, 3), stride=(1, 1), padding=(1, 1))
      (1): LeakyReLU(negative_slope=0.2, inplace=True)
      (2): Conv2d(256, 1, kernel_size=(1, 1), stride=(1, 1))
    )
    (embedding): Embedding(194, 256)
  )
  (3): ProjectionDiscriminator(
    (model): Sequential(
      (0): ReplicationPad2d((1, 1, 1, 1))
      (1): Conv2d(128, 128, kernel_size=(3, 3), stride=(2, 2), bias=False)
      (2): GroupNorm(8, 128, eps=1e-05, affine=True)
      (3): LeakyReLU(negative_slope=0.2, inplace=True)
      (4): ReplicationPad2d((1, 1, 1, 1))
      (5): Conv2d(128, 256, kernel_size=(3, 3), stride=(2, 2), bias=False)
      (6): GroupNorm(8, 256, eps=1e-05, affine=True)
      (7): LeakyReLU(negative_slope=0.2, inplace=True)
      (8): ReplicationPad2d((1, 1, 1, 1))
      (9): Conv2d(256, 256, kernel_size=(3, 3), stride=(2, 2), bias=False)
      (10): GroupNorm(8, 256, eps=1e-05, affine=True)
      (11): LeakyReLU(negative_slope=0.2, inplace=True)
      (12): ReplicationPad2d((1, 1, 1, 1))
      (13): Conv2d(256, 256, kernel_size=(3, 3), stride=(1, 1), bias=False)
      (14): GroupNorm(8, 256, eps=1e-05, affine=True)
      (15): LeakyReLU(negative_slope=0.2, inplace=True)
    )
    (out): Sequential(
      (0): Conv2d(256, 256, kernel_size=(3, 3), stride=(1, 1), padding=(1, 1))
      (1): LeakyReLU(negative_slope=0.2, inplace=True)
      (2): Conv2d(256, 1, kernel_size=(1, 1), stride=(1, 1))
    )
    (embedding): Embedding(194, 256)
  )
  (4): ProjectionDiscriminator(
    (model): Sequential(
      (0): ReplicationPad2d((1, 1, 1, 1))
      (1): Conv2d(256, 256, kernel_size=(3, 3), stride=(2, 2), bias=False)
      (2): GroupNorm(8, 256, eps=1e-05, affine=True)
      (3): LeakyReLU(negative_slope=0.2, inplace=True)
      (4): ReplicationPad2d((1, 1, 1, 1))
      (5): Conv2d(256, 256, kernel_size=(3, 3), stride=(2, 2), bias=False)
      (6): GroupNorm(8, 256, eps=1e-05, affine=True)
      (7): LeakyReLU(negative_slope=0.2, inplace=True)
      (8): ReplicationPad2d((1, 1, 1, 1))
      (9): Conv2d(256, 256, kernel_size=(3, 3), stride=(1, 1), bias=False)
      (10): GroupNorm(8, 256, eps=1e-05, affine=True)
      (11): LeakyReLU(negative_slope=0.2, inplace=True)
      (12): ReplicationPad2d((1, 1, 1, 1))
      (13): Conv2d(256, 256, kernel_size=(3, 3), stride=(1, 1), bias=False)
      (14): GroupNorm(8, 256, eps=1e-05, affine=True)
      (15): LeakyReLU(negative_slope=0.2, inplace=True)
    )
    (out): Sequential(
      (0): Conv2d(256, 256, kernel_size=(3, 3), stride=(1, 1), padding=(1, 1))
      (1): LeakyReLU(negative_slope=0.2, inplace=True)
      (2): Conv2d(256, 1, kernel_size=(1, 1), stride=(1, 1))
    )
    (embedding): Embedding(194, 256)
  )
  (5): ProjectionDiscriminator(
    (model): Sequential(
      (0): ReplicationPad2d((1, 1, 1, 1))
      (1): Conv2d(256, 256, kernel_size=(3, 3), stride=(2, 2), bias=False)
      (2): GroupNorm(8, 256, eps=1e-05, affine=True)
      (3): LeakyReLU(negative_slope=0.2, inplace=True)
      (4): ReplicationPad2d((1, 1, 1, 1))
      (5): Conv2d(256, 256, kernel_size=(3, 3), stride=(2, 2), bias=False)
      (6): GroupNorm(8, 256, eps=1e-05, affine=True)
      (7): LeakyReLU(negative_slope=0.2, inplace=True)
      (8): ReplicationPad2d((1, 1, 1, 1))
      (9): Conv2d(256, 256, kernel_size=(3, 3), stride=(1, 1), bias=False)
      (10): GroupNorm(8, 256, eps=1e-05, affine=True)
      (11): LeakyReLU(negative_slope=0.2, inplace=True)
      (12): ReplicationPad2d((1, 1, 1, 1))
      (13): Conv2d(256, 256, kernel_size=(3, 3), stride=(1, 1), bias=False)
      (14): GroupNorm(8, 256, eps=1e-05, affine=True)
      (15): LeakyReLU(negative_slope=0.2, inplace=True)
    )
    (out): Sequential(
      (0): Conv2d(256, 256, kernel_size=(3, 3), stride=(1, 1), padding=(1, 1))
      (1): LeakyReLU(negative_slope=0.2, inplace=True)
      (2): Conv2d(256, 1, kernel_size=(1, 1), stride=(1, 1))
    )
    (embedding): Embedding(194, 256)
  )
  (6): ProjectionDiscriminator(
    (model): Sequential(
      (0): ReplicationPad2d((1, 1, 1, 1))
      (1): Conv2d(256, 256, kernel_size=(3, 3), stride=(2, 2), bias=False)
      (2): GroupNorm(8, 256, eps=1e-05, affine=True)
      (3): LeakyReLU(negative_slope=0.2, inplace=True)
      (4): ReplicationPad2d((1, 1, 1, 1))
      (5): Conv2d(256, 256, kernel_size=(3, 3), stride=(2, 2), bias=False)
      (6): GroupNorm(8, 256, eps=1e-05, affine=True)
      (7): LeakyReLU(negative_slope=0.2, inplace=True)
      (8): ReplicationPad2d((1, 1, 1, 1))
      (9): Conv2d(256, 256, kernel_size=(3, 3), stride=(1, 1), bias=False)
      (10): GroupNorm(8, 256, eps=1e-05, affine=True)
      (11): LeakyReLU(negative_slope=0.2, inplace=True)
      (12): ReplicationPad2d((1, 1, 1, 1))
      (13): Conv2d(256, 256, kernel_size=(3, 3), stride=(1, 1), bias=False)
      (14): GroupNorm(8, 256, eps=1e-05, affine=True)
      (15): LeakyReLU(negative_slope=0.2, inplace=True)
    )
    (out): Sequential(
      (0): Conv2d(256, 256, kernel_size=(3, 3), stride=(1, 1), padding=(1, 1))
      (1): LeakyReLU(negative_slope=0.2, inplace=True)
      (2): Conv2d(256, 1, kernel_size=(1, 1), stride=(1, 1))
    )
    (embedding): Embedding(194, 256)
  )
  (7): ProjectionDiscriminator(
    (model): Sequential(
      (0): ReplicationPad2d((1, 1, 1, 1))
      (1): Conv2d(512, 256, kernel_size=(3, 3), stride=(2, 2), bias=False)
      (2): GroupNorm(8, 256, eps=1e-05, affine=True)
      (3): LeakyReLU(negative_slope=0.2, inplace=True)
      (4): ReplicationPad2d((1, 1, 1, 1))
      (5): Conv2d(256, 256, kernel_size=(3, 3), stride=(1, 1), bias=False)
      (6): GroupNorm(8, 256, eps=1e-05, affine=True)
      (7): LeakyReLU(negative_slope=0.2, inplace=True)
      (8): ReplicationPad2d((1, 1, 1, 1))
      (9): Conv2d(256, 256, kernel_size=(3, 3), stride=(1, 1), bias=False)
      (10): GroupNorm(8, 256, eps=1e-05, affine=True)
      (11): LeakyReLU(negative_slope=0.2, inplace=True)
      (12): ReplicationPad2d((1, 1, 1, 1))
      (13): Conv2d(256, 256, kernel_size=(3, 3), stride=(1, 1), bias=False)
      (14): GroupNorm(8, 256, eps=1e-05, affine=True)
      (15): LeakyReLU(negative_slope=0.2, inplace=True)
    )
    (out): Sequential(
      (0): Conv2d(256, 256, kernel_size=(3, 3), stride=(1, 1), padding=(1, 1))
      (1): LeakyReLU(negative_slope=0.2, inplace=True)
      (2): Conv2d(256, 1, kernel_size=(1, 1), stride=(1, 1))
    )
    (embedding): Embedding(194, 256)
  )
  (8): ProjectionDiscriminator(
    (model): Sequential(
      (0): ReplicationPad2d((1, 1, 1, 1))
      (1): Conv2d(512, 256, kernel_size=(3, 3), stride=(2, 2), bias=False)
      (2): GroupNorm(8, 256, eps=1e-05, affine=True)
      (3): LeakyReLU(negative_slope=0.2, inplace=True)
      (4): ReplicationPad2d((1, 1, 1, 1))
      (5): Conv2d(256, 256, kernel_size=(3, 3), stride=(1, 1), bias=False)
      (6): GroupNorm(8, 256, eps=1e-05, affine=True)
      (7): LeakyReLU(negative_slope=0.2, inplace=True)
      (8): ReplicationPad2d((1, 1, 1, 1))
      (9): Conv2d(256, 256, kernel_size=(3, 3), stride=(1, 1), bias=False)
      (10): GroupNorm(8, 256, eps=1e-05, affine=True)
      (11): LeakyReLU(negative_slope=0.2, inplace=True)
      (12): ReplicationPad2d((1, 1, 1, 1))
      (13): Conv2d(256, 256, kernel_size=(3, 3), stride=(1, 1), bias=False)
      (14): GroupNorm(8, 256, eps=1e-05, affine=True)
      (15): LeakyReLU(negative_slope=0.2, inplace=True)
    )
    (out): Sequential(
      (0): Conv2d(256, 256, kernel_size=(3, 3), stride=(1, 1), padding=(1, 1))
      (1): LeakyReLU(negative_slope=0.2, inplace=True)
      (2): Conv2d(256, 1, kernel_size=(1, 1), stride=(1, 1))
    )
    (embedding): Embedding(194, 256)
  )
  (9): ProjectionDiscriminator(
    (model): Sequential(
      (0): ReplicationPad2d((1, 1, 1, 1))
      (1): Conv2d(512, 256, kernel_size=(3, 3), stride=(2, 2), bias=False)
      (2): GroupNorm(8, 256, eps=1e-05, affine=True)
      (3): LeakyReLU(negative_slope=0.2, inplace=True)
      (4): ReplicationPad2d((1, 1, 1, 1))
      (5): Conv2d(256, 256, kernel_size=(3, 3), stride=(1, 1), bias=False)
      (6): GroupNorm(8, 256, eps=1e-05, affine=True)
      (7): LeakyReLU(negative_slope=0.2, inplace=True)
      (8): ReplicationPad2d((1, 1, 1, 1))
      (9): Conv2d(256, 256, kernel_size=(3, 3), stride=(1, 1), bias=False)
      (10): GroupNorm(8, 256, eps=1e-05, affine=True)
      (11): LeakyReLU(negative_slope=0.2, inplace=True)
      (12): ReplicationPad2d((1, 1, 1, 1))
      (13): Conv2d(256, 256, kernel_size=(3, 3), stride=(1, 1), bias=False)
      (14): GroupNorm(8, 256, eps=1e-05, affine=True)
      (15): LeakyReLU(negative_slope=0.2, inplace=True)
    )
    (out): Sequential(
      (0): Conv2d(256, 256, kernel_size=(3, 3), stride=(1, 1), padding=(1, 1))
      (1): LeakyReLU(negative_slope=0.2, inplace=True)
      (2): Conv2d(256, 1, kernel_size=(1, 1), stride=(1, 1))
    )
    (embedding): Embedding(194, 256)
  )
)
2022-04-09 02:50:01,715 AdaptiveBackprop is [on].
2022-04-09 02:50:01,715   check fake performance : [on].
2022-04-09 02:50:01,715   target                 : 0.6
2022-04-09 02:50:01,715 Networks are initialized.
2022-04-09 02:50:01,733 GAN(
  (discriminator): PerceptualProjectionDiscEnsemble(
    (discs): ModuleList(
      (0): ProjectionDiscriminator(
        (model): Sequential(
          (0): ReplicationPad2d((1, 1, 1, 1))
          (1): Conv2d(64, 64, kernel_size=(3, 3), stride=(2, 2), bias=False)
          (2): GroupNorm(8, 64, eps=1e-05, affine=True)
          (3): LeakyReLU(negative_slope=0.2, inplace=True)
          (4): ReplicationPad2d((1, 1, 1, 1))
          (5): Conv2d(64, 128, kernel_size=(3, 3), stride=(2, 2), bias=False)
          (6): GroupNorm(8, 128, eps=1e-05, affine=True)
          (7): LeakyReLU(negative_slope=0.2, inplace=True)
          (8): ReplicationPad2d((1, 1, 1, 1))
          (9): Conv2d(128, 256, kernel_size=(3, 3), stride=(2, 2), bias=False)
          (10): GroupNorm(8, 256, eps=1e-05, affine=True)
          (11): LeakyReLU(negative_slope=0.2, inplace=True)
          (12): ReplicationPad2d((1, 1, 1, 1))
          (13): Conv2d(256, 256, kernel_size=(3, 3), stride=(2, 2), bias=False)
          (14): GroupNorm(8, 256, eps=1e-05, affine=True)
          (15): LeakyReLU(negative_slope=0.2, inplace=True)
        )
        (out): Sequential(
          (0): Conv2d(256, 256, kernel_size=(3, 3), stride=(1, 1), padding=(1, 1))
          (1): LeakyReLU(negative_slope=0.2, inplace=True)
          (2): Conv2d(256, 1, kernel_size=(1, 1), stride=(1, 1))
        )
        (embedding): Embedding(194, 256)
      )
      (1): ProjectionDiscriminator(
        (model): Sequential(
          (0): ReplicationPad2d((1, 1, 1, 1))
          (1): Conv2d(64, 64, kernel_size=(3, 3), stride=(2, 2), bias=False)
          (2): GroupNorm(8, 64, eps=1e-05, affine=True)
          (3): LeakyReLU(negative_slope=0.2, inplace=True)
          (4): ReplicationPad2d((1, 1, 1, 1))
          (5): Conv2d(64, 128, kernel_size=(3, 3), stride=(2, 2), bias=False)
          (6): GroupNorm(8, 128, eps=1e-05, affine=True)
          (7): LeakyReLU(negative_slope=0.2, inplace=True)
          (8): ReplicationPad2d((1, 1, 1, 1))
          (9): Conv2d(128, 256, kernel_size=(3, 3), stride=(2, 2), bias=False)
          (10): GroupNorm(8, 256, eps=1e-05, affine=True)
          (11): LeakyReLU(negative_slope=0.2, inplace=True)
          (12): ReplicationPad2d((1, 1, 1, 1))
          (13): Conv2d(256, 256, kernel_size=(3, 3), stride=(2, 2), bias=False)
          (14): GroupNorm(8, 256, eps=1e-05, affine=True)
          (15): LeakyReLU(negative_slope=0.2, inplace=True)
        )
        (out): Sequential(
          (0): Conv2d(256, 256, kernel_size=(3, 3), stride=(1, 1), padding=(1, 1))
          (1): LeakyReLU(negative_slope=0.2, inplace=True)
          (2): Conv2d(256, 1, kernel_size=(1, 1), stride=(1, 1))
        )
        (embedding): Embedding(194, 256)
      )
      (2): ProjectionDiscriminator(
        (model): Sequential(
          (0): ReplicationPad2d((1, 1, 1, 1))
          (1): Conv2d(128, 128, kernel_size=(3, 3), stride=(2, 2), bias=False)
          (2): GroupNorm(8, 128, eps=1e-05, affine=True)
          (3): LeakyReLU(negative_slope=0.2, inplace=True)
          (4): ReplicationPad2d((1, 1, 1, 1))
          (5): Conv2d(128, 256, kernel_size=(3, 3), stride=(2, 2), bias=False)
          (6): GroupNorm(8, 256, eps=1e-05, affine=True)
          (7): LeakyReLU(negative_slope=0.2, inplace=True)
          (8): ReplicationPad2d((1, 1, 1, 1))
          (9): Conv2d(256, 256, kernel_size=(3, 3), stride=(2, 2), bias=False)
          (10): GroupNorm(8, 256, eps=1e-05, affine=True)
          (11): LeakyReLU(negative_slope=0.2, inplace=True)
          (12): ReplicationPad2d((1, 1, 1, 1))
          (13): Conv2d(256, 256, kernel_size=(3, 3), stride=(1, 1), bias=False)
          (14): GroupNorm(8, 256, eps=1e-05, affine=True)
          (15): LeakyReLU(negative_slope=0.2, inplace=True)
        )
        (out): Sequential(
          (0): Conv2d(256, 256, kernel_size=(3, 3), stride=(1, 1), padding=(1, 1))
          (1): LeakyReLU(negative_slope=0.2, inplace=True)
          (2): Conv2d(256, 1, kernel_size=(1, 1), stride=(1, 1))
        )
        (embedding): Embedding(194, 256)
      )
      (3): ProjectionDiscriminator(
        (model): Sequential(
          (0): ReplicationPad2d((1, 1, 1, 1))
          (1): Conv2d(128, 128, kernel_size=(3, 3), stride=(2, 2), bias=False)
          (2): GroupNorm(8, 128, eps=1e-05, affine=True)
          (3): LeakyReLU(negative_slope=0.2, inplace=True)
          (4): ReplicationPad2d((1, 1, 1, 1))
          (5): Conv2d(128, 256, kernel_size=(3, 3), stride=(2, 2), bias=False)
          (6): GroupNorm(8, 256, eps=1e-05, affine=True)
          (7): LeakyReLU(negative_slope=0.2, inplace=True)
          (8): ReplicationPad2d((1, 1, 1, 1))
          (9): Conv2d(256, 256, kernel_size=(3, 3), stride=(2, 2), bias=False)
          (10): GroupNorm(8, 256, eps=1e-05, affine=True)
          (11): LeakyReLU(negative_slope=0.2, inplace=True)
          (12): ReplicationPad2d((1, 1, 1, 1))
          (13): Conv2d(256, 256, kernel_size=(3, 3), stride=(1, 1), bias=False)
          (14): GroupNorm(8, 256, eps=1e-05, affine=True)
          (15): LeakyReLU(negative_slope=0.2, inplace=True)
        )
        (out): Sequential(
          (0): Conv2d(256, 256, kernel_size=(3, 3), stride=(1, 1), padding=(1, 1))
          (1): LeakyReLU(negative_slope=0.2, inplace=True)
          (2): Conv2d(256, 1, kernel_size=(1, 1), stride=(1, 1))
        )
        (embedding): Embedding(194, 256)
      )
      (4): ProjectionDiscriminator(
        (model): Sequential(
          (0): ReplicationPad2d((1, 1, 1, 1))
          (1): Conv2d(256, 256, kernel_size=(3, 3), stride=(2, 2), bias=False)
          (2): GroupNorm(8, 256, eps=1e-05, affine=True)
          (3): LeakyReLU(negative_slope=0.2, inplace=True)
          (4): ReplicationPad2d((1, 1, 1, 1))
          (5): Conv2d(256, 256, kernel_size=(3, 3), stride=(2, 2), bias=False)
          (6): GroupNorm(8, 256, eps=1e-05, affine=True)
          (7): LeakyReLU(negative_slope=0.2, inplace=True)
          (8): ReplicationPad2d((1, 1, 1, 1))
          (9): Conv2d(256, 256, kernel_size=(3, 3), stride=(1, 1), bias=False)
          (10): GroupNorm(8, 256, eps=1e-05, affine=True)
          (11): LeakyReLU(negative_slope=0.2, inplace=True)
          (12): ReplicationPad2d((1, 1, 1, 1))
          (13): Conv2d(256, 256, kernel_size=(3, 3), stride=(1, 1), bias=False)
          (14): GroupNorm(8, 256, eps=1e-05, affine=True)
          (15): LeakyReLU(negative_slope=0.2, inplace=True)
        )
        (out): Sequential(
          (0): Conv2d(256, 256, kernel_size=(3, 3), stride=(1, 1), padding=(1, 1))
          (1): LeakyReLU(negative_slope=0.2, inplace=True)
          (2): Conv2d(256, 1, kernel_size=(1, 1), stride=(1, 1))
        )
        (embedding): Embedding(194, 256)
      )
      (5): ProjectionDiscriminator(
        (model): Sequential(
          (0): ReplicationPad2d((1, 1, 1, 1))
          (1): Conv2d(256, 256, kernel_size=(3, 3), stride=(2, 2), bias=False)
          (2): GroupNorm(8, 256, eps=1e-05, affine=True)
          (3): LeakyReLU(negative_slope=0.2, inplace=True)
          (4): ReplicationPad2d((1, 1, 1, 1))
          (5): Conv2d(256, 256, kernel_size=(3, 3), stride=(2, 2), bias=False)
          (6): GroupNorm(8, 256, eps=1e-05, affine=True)
          (7): LeakyReLU(negative_slope=0.2, inplace=True)
          (8): ReplicationPad2d((1, 1, 1, 1))
          (9): Conv2d(256, 256, kernel_size=(3, 3), stride=(1, 1), bias=False)
          (10): GroupNorm(8, 256, eps=1e-05, affine=True)
          (11): LeakyReLU(negative_slope=0.2, inplace=True)
          (12): ReplicationPad2d((1, 1, 1, 1))
          (13): Conv2d(256, 256, kernel_size=(3, 3), stride=(1, 1), bias=False)
          (14): GroupNorm(8, 256, eps=1e-05, affine=True)
          (15): LeakyReLU(negative_slope=0.2, inplace=True)
        )
        (out): Sequential(
          (0): Conv2d(256, 256, kernel_size=(3, 3), stride=(1, 1), padding=(1, 1))
          (1): LeakyReLU(negative_slope=0.2, inplace=True)
          (2): Conv2d(256, 1, kernel_size=(1, 1), stride=(1, 1))
        )
        (embedding): Embedding(194, 256)
      )
      (6): ProjectionDiscriminator(
        (model): Sequential(
          (0): ReplicationPad2d((1, 1, 1, 1))
          (1): Conv2d(256, 256, kernel_size=(3, 3), stride=(2, 2), bias=False)
          (2): GroupNorm(8, 256, eps=1e-05, affine=True)
          (3): LeakyReLU(negative_slope=0.2, inplace=True)
          (4): ReplicationPad2d((1, 1, 1, 1))
          (5): Conv2d(256, 256, kernel_size=(3, 3), stride=(2, 2), bias=False)
          (6): GroupNorm(8, 256, eps=1e-05, affine=True)
          (7): LeakyReLU(negative_slope=0.2, inplace=True)
          (8): ReplicationPad2d((1, 1, 1, 1))
          (9): Conv2d(256, 256, kernel_size=(3, 3), stride=(1, 1), bias=False)
          (10): GroupNorm(8, 256, eps=1e-05, affine=True)
          (11): LeakyReLU(negative_slope=0.2, inplace=True)
          (12): ReplicationPad2d((1, 1, 1, 1))
          (13): Conv2d(256, 256, kernel_size=(3, 3), stride=(1, 1), bias=False)
          (14): GroupNorm(8, 256, eps=1e-05, affine=True)
          (15): LeakyReLU(negative_slope=0.2, inplace=True)
        )
        (out): Sequential(
          (0): Conv2d(256, 256, kernel_size=(3, 3), stride=(1, 1), padding=(1, 1))
          (1): LeakyReLU(negative_slope=0.2, inplace=True)
          (2): Conv2d(256, 1, kernel_size=(1, 1), stride=(1, 1))
        )
        (embedding): Embedding(194, 256)
      )
      (7): ProjectionDiscriminator(
        (model): Sequential(
          (0): ReplicationPad2d((1, 1, 1, 1))
          (1): Conv2d(512, 256, kernel_size=(3, 3), stride=(2, 2), bias=False)
          (2): GroupNorm(8, 256, eps=1e-05, affine=True)
          (3): LeakyReLU(negative_slope=0.2, inplace=True)
          (4): ReplicationPad2d((1, 1, 1, 1))
          (5): Conv2d(256, 256, kernel_size=(3, 3), stride=(1, 1), bias=False)
          (6): GroupNorm(8, 256, eps=1e-05, affine=True)
          (7): LeakyReLU(negative_slope=0.2, inplace=True)
          (8): ReplicationPad2d((1, 1, 1, 1))
          (9): Conv2d(256, 256, kernel_size=(3, 3), stride=(1, 1), bias=False)
          (10): GroupNorm(8, 256, eps=1e-05, affine=True)
          (11): LeakyReLU(negative_slope=0.2, inplace=True)
          (12): ReplicationPad2d((1, 1, 1, 1))
          (13): Conv2d(256, 256, kernel_size=(3, 3), stride=(1, 1), bias=False)
          (14): GroupNorm(8, 256, eps=1e-05, affine=True)
          (15): LeakyReLU(negative_slope=0.2, inplace=True)
        )
        (out): Sequential(
          (0): Conv2d(256, 256, kernel_size=(3, 3), stride=(1, 1), padding=(1, 1))
          (1): LeakyReLU(negative_slope=0.2, inplace=True)
          (2): Conv2d(256, 1, kernel_size=(1, 1), stride=(1, 1))
        )
        (embedding): Embedding(194, 256)
      )
      (8): ProjectionDiscriminator(
        (model): Sequential(
          (0): ReplicationPad2d((1, 1, 1, 1))
          (1): Conv2d(512, 256, kernel_size=(3, 3), stride=(2, 2), bias=False)
          (2): GroupNorm(8, 256, eps=1e-05, affine=True)
          (3): LeakyReLU(negative_slope=0.2, inplace=True)
          (4): ReplicationPad2d((1, 1, 1, 1))
          (5): Conv2d(256, 256, kernel_size=(3, 3), stride=(1, 1), bias=False)
          (6): GroupNorm(8, 256, eps=1e-05, affine=True)
          (7): LeakyReLU(negative_slope=0.2, inplace=True)
          (8): ReplicationPad2d((1, 1, 1, 1))
          (9): Conv2d(256, 256, kernel_size=(3, 3), stride=(1, 1), bias=False)
          (10): GroupNorm(8, 256, eps=1e-05, affine=True)
          (11): LeakyReLU(negative_slope=0.2, inplace=True)
          (12): ReplicationPad2d((1, 1, 1, 1))
          (13): Conv2d(256, 256, kernel_size=(3, 3), stride=(1, 1), bias=False)
          (14): GroupNorm(8, 256, eps=1e-05, affine=True)
          (15): LeakyReLU(negative_slope=0.2, inplace=True)
        )
        (out): Sequential(
          (0): Conv2d(256, 256, kernel_size=(3, 3), stride=(1, 1), padding=(1, 1))
          (1): LeakyReLU(negative_slope=0.2, inplace=True)
          (2): Conv2d(256, 1, kernel_size=(1, 1), stride=(1, 1))
        )
        (embedding): Embedding(194, 256)
      )
      (9): ProjectionDiscriminator(
        (model): Sequential(
          (0): ReplicationPad2d((1, 1, 1, 1))
          (1): Conv2d(512, 256, kernel_size=(3, 3), stride=(2, 2), bias=False)
          (2): GroupNorm(8, 256, eps=1e-05, affine=True)
          (3): LeakyReLU(negative_slope=0.2, inplace=True)
          (4): ReplicationPad2d((1, 1, 1, 1))
          (5): Conv2d(256, 256, kernel_size=(3, 3), stride=(1, 1), bias=False)
          (6): GroupNorm(8, 256, eps=1e-05, affine=True)
          (7): LeakyReLU(negative_slope=0.2, inplace=True)
          (8): ReplicationPad2d((1, 1, 1, 1))
          (9): Conv2d(256, 256, kernel_size=(3, 3), stride=(1, 1), bias=False)
          (10): GroupNorm(8, 256, eps=1e-05, affine=True)
          (11): LeakyReLU(negative_slope=0.2, inplace=True)
          (12): ReplicationPad2d((1, 1, 1, 1))
          (13): Conv2d(256, 256, kernel_size=(3, 3), stride=(1, 1), bias=False)
          (14): GroupNorm(8, 256, eps=1e-05, affine=True)
          (15): LeakyReLU(negative_slope=0.2, inplace=True)
        )
        (out): Sequential(
          (0): Conv2d(256, 256, kernel_size=(3, 3), stride=(1, 1), padding=(1, 1))
          (1): LeakyReLU(negative_slope=0.2, inplace=True)
          (2): Conv2d(256, 1, kernel_size=(1, 1), stride=(1, 1))
        )
        (embedding): Embedding(194, 256)
      )
    )
  )
  (generator): ResidualGenerator(
    (network): HighResolutionNet(
      (stem): Sequential(
        (0): ReplicationPad2d((1, 1, 1, 1))
        (1): Conv2d(3, 16, kernel_size=(3, 3), stride=(1, 1), bias=False)
        (2): GroupNorm(8, 16, eps=1e-05, affine=True)
        (3): ReLU(inplace=True)
        (4): ReplicationPad2d((1, 1, 1, 1))
        (5): Conv2d(16, 16, kernel_size=(3, 3), stride=(1, 1), bias=False)
        (6): GroupNorm(8, 16, eps=1e-05, affine=True)
        (7): ReLU(inplace=True)
      )
      (gbuffer_encoder): GBufferEncoder(
        (class_encoders): ModuleList(
          (0): Sequential(
            (0): ResBlock(
              (conv): Sequential(
                (0): ReplicationPad2d((1, 1, 1, 1))
                (1): Conv2d(13, 64, kernel_size=(3, 3), stride=(1, 1))
                (2): ReLU(inplace=True)
                (3): ReplicationPad2d((1, 1, 1, 1))
                (4): Conv2d(64, 64, kernel_size=(3, 3), stride=(1, 1))
              )
              (down): Sequential(
                (0): ReplicationPad2d((1, 1, 1, 1))
                (1): Conv2d(13, 64, kernel_size=(3, 3), stride=(1, 1))
                (2): ReLU(inplace=True)
              )
              (relu): ReLU(inplace=True)
            )
            (1): ResBlock(
              (conv): Sequential(
                (0): ReplicationPad2d((1, 1, 1, 1))
                (1): Conv2d(64, 64, kernel_size=(3, 3), stride=(1, 1))
                (2): ReLU(inplace=True)
                (3): ReplicationPad2d((1, 1, 1, 1))
                (4): Conv2d(64, 128, kernel_size=(3, 3), stride=(1, 1))
              )
              (down): Sequential(
                (0): ReplicationPad2d((1, 1, 1, 1))
                (1): Conv2d(64, 128, kernel_size=(3, 3), stride=(1, 1))
                (2): ReLU(inplace=True)
              )
              (relu): ReLU(inplace=True)
            )
          )
          (1): Sequential(
            (0): ResBlock(
              (conv): Sequential(
                (0): ReplicationPad2d((1, 1, 1, 1))
                (1): Conv2d(13, 64, kernel_size=(3, 3), stride=(1, 1))
                (2): ReLU(inplace=True)
                (3): ReplicationPad2d((1, 1, 1, 1))
                (4): Conv2d(64, 64, kernel_size=(3, 3), stride=(1, 1))
              )
              (down): Sequential(
                (0): ReplicationPad2d((1, 1, 1, 1))
                (1): Conv2d(13, 64, kernel_size=(3, 3), stride=(1, 1))
                (2): ReLU(inplace=True)
              )
              (relu): ReLU(inplace=True)
            )
            (1): ResBlock(
              (conv): Sequential(
                (0): ReplicationPad2d((1, 1, 1, 1))
                (1): Conv2d(64, 64, kernel_size=(3, 3), stride=(1, 1))
                (2): ReLU(inplace=True)
                (3): ReplicationPad2d((1, 1, 1, 1))
                (4): Conv2d(64, 128, kernel_size=(3, 3), stride=(1, 1))
              )
              (down): Sequential(
                (0): ReplicationPad2d((1, 1, 1, 1))
                (1): Conv2d(64, 128, kernel_size=(3, 3), stride=(1, 1))
                (2): ReLU(inplace=True)
              )
              (relu): ReLU(inplace=True)
            )
          )
          (2): Sequential(
            (0): ResBlock(
              (conv): Sequential(
                (0): ReplicationPad2d((1, 1, 1, 1))
                (1): Conv2d(13, 64, kernel_size=(3, 3), stride=(1, 1))
                (2): ReLU(inplace=True)
                (3): ReplicationPad2d((1, 1, 1, 1))
                (4): Conv2d(64, 64, kernel_size=(3, 3), stride=(1, 1))
              )
              (down): Sequential(
                (0): ReplicationPad2d((1, 1, 1, 1))
                (1): Conv2d(13, 64, kernel_size=(3, 3), stride=(1, 1))
                (2): ReLU(inplace=True)
              )
              (relu): ReLU(inplace=True)
            )
            (1): ResBlock(
              (conv): Sequential(
                (0): ReplicationPad2d((1, 1, 1, 1))
                (1): Conv2d(64, 64, kernel_size=(3, 3), stride=(1, 1))
                (2): ReLU(inplace=True)
                (3): ReplicationPad2d((1, 1, 1, 1))
                (4): Conv2d(64, 128, kernel_size=(3, 3), stride=(1, 1))
              )
              (down): Sequential(
                (0): ReplicationPad2d((1, 1, 1, 1))
                (1): Conv2d(64, 128, kernel_size=(3, 3), stride=(1, 1))
                (2): ReLU(inplace=True)
              )
              (relu): ReLU(inplace=True)
            )
          )
          (3): Sequential(
            (0): ResBlock(
              (conv): Sequential(
                (0): ReplicationPad2d((1, 1, 1, 1))
                (1): Conv2d(13, 64, kernel_size=(3, 3), stride=(1, 1))
                (2): ReLU(inplace=True)
                (3): ReplicationPad2d((1, 1, 1, 1))
                (4): Conv2d(64, 64, kernel_size=(3, 3), stride=(1, 1))
              )
              (down): Sequential(
                (0): ReplicationPad2d((1, 1, 1, 1))
                (1): Conv2d(13, 64, kernel_size=(3, 3), stride=(1, 1))
                (2): ReLU(inplace=True)
              )
              (relu): ReLU(inplace=True)
            )
            (1): ResBlock(
              (conv): Sequential(
                (0): ReplicationPad2d((1, 1, 1, 1))
                (1): Conv2d(64, 64, kernel_size=(3, 3), stride=(1, 1))
                (2): ReLU(inplace=True)
                (3): ReplicationPad2d((1, 1, 1, 1))
                (4): Conv2d(64, 128, kernel_size=(3, 3), stride=(1, 1))
              )
              (down): Sequential(
                (0): ReplicationPad2d((1, 1, 1, 1))
                (1): Conv2d(64, 128, kernel_size=(3, 3), stride=(1, 1))
                (2): ReLU(inplace=True)
              )
              (relu): ReLU(inplace=True)
            )
          )
          (4): Sequential(
            (0): ResBlock(
              (conv): Sequential(
                (0): ReplicationPad2d((1, 1, 1, 1))
                (1): Conv2d(13, 64, kernel_size=(3, 3), stride=(1, 1))
                (2): ReLU(inplace=True)
                (3): ReplicationPad2d((1, 1, 1, 1))
                (4): Conv2d(64, 64, kernel_size=(3, 3), stride=(1, 1))
              )
              (down): Sequential(
                (0): ReplicationPad2d((1, 1, 1, 1))
                (1): Conv2d(13, 64, kernel_size=(3, 3), stride=(1, 1))
                (2): ReLU(inplace=True)
              )
              (relu): ReLU(inplace=True)
            )
            (1): ResBlock(
              (conv): Sequential(
                (0): ReplicationPad2d((1, 1, 1, 1))
                (1): Conv2d(64, 64, kernel_size=(3, 3), stride=(1, 1))
                (2): ReLU(inplace=True)
                (3): ReplicationPad2d((1, 1, 1, 1))
                (4): Conv2d(64, 128, kernel_size=(3, 3), stride=(1, 1))
              )
              (down): Sequential(
                (0): ReplicationPad2d((1, 1, 1, 1))
                (1): Conv2d(64, 128, kernel_size=(3, 3), stride=(1, 1))
                (2): ReLU(inplace=True)
              )
              (relu): ReLU(inplace=True)
            )
          )
          (5): Sequential(
            (0): ResBlock(
              (conv): Sequential(
                (0): ReplicationPad2d((1, 1, 1, 1))
                (1): Conv2d(13, 64, kernel_size=(3, 3), stride=(1, 1))
                (2): ReLU(inplace=True)
                (3): ReplicationPad2d((1, 1, 1, 1))
                (4): Conv2d(64, 64, kernel_size=(3, 3), stride=(1, 1))
              )
              (down): Sequential(
                (0): ReplicationPad2d((1, 1, 1, 1))
                (1): Conv2d(13, 64, kernel_size=(3, 3), stride=(1, 1))
                (2): ReLU(inplace=True)
              )
              (relu): ReLU(inplace=True)
            )
            (1): ResBlock(
              (conv): Sequential(
                (0): ReplicationPad2d((1, 1, 1, 1))
                (1): Conv2d(64, 64, kernel_size=(3, 3), stride=(1, 1))
                (2): ReLU(inplace=True)
                (3): ReplicationPad2d((1, 1, 1, 1))
                (4): Conv2d(64, 128, kernel_size=(3, 3), stride=(1, 1))
              )
              (down): Sequential(
                (0): ReplicationPad2d((1, 1, 1, 1))
                (1): Conv2d(64, 128, kernel_size=(3, 3), stride=(1, 1))
                (2): ReLU(inplace=True)
              )
              (relu): ReLU(inplace=True)
            )
          )
          (6): Sequential(
            (0): ResBlock(
              (conv): Sequential(
                (0): ReplicationPad2d((1, 1, 1, 1))
                (1): Conv2d(13, 64, kernel_size=(3, 3), stride=(1, 1))
                (2): ReLU(inplace=True)
                (3): ReplicationPad2d((1, 1, 1, 1))
                (4): Conv2d(64, 64, kernel_size=(3, 3), stride=(1, 1))
              )
              (down): Sequential(
                (0): ReplicationPad2d((1, 1, 1, 1))
                (1): Conv2d(13, 64, kernel_size=(3, 3), stride=(1, 1))
                (2): ReLU(inplace=True)
              )
              (relu): ReLU(inplace=True)
            )
            (1): ResBlock(
              (conv): Sequential(
                (0): ReplicationPad2d((1, 1, 1, 1))
                (1): Conv2d(64, 64, kernel_size=(3, 3), stride=(1, 1))
                (2): ReLU(inplace=True)
                (3): ReplicationPad2d((1, 1, 1, 1))
                (4): Conv2d(64, 128, kernel_size=(3, 3), stride=(1, 1))
              )
              (down): Sequential(
                (0): ReplicationPad2d((1, 1, 1, 1))
                (1): Conv2d(64, 128, kernel_size=(3, 3), stride=(1, 1))
                (2): ReLU(inplace=True)
              )
              (relu): ReLU(inplace=True)
            )
          )
          (7): Sequential(
            (0): ResBlock(
              (conv): Sequential(
                (0): ReplicationPad2d((1, 1, 1, 1))
                (1): Conv2d(13, 64, kernel_size=(3, 3), stride=(1, 1))
                (2): ReLU(inplace=True)
                (3): ReplicationPad2d((1, 1, 1, 1))
                (4): Conv2d(64, 64, kernel_size=(3, 3), stride=(1, 1))
              )
              (down): Sequential(
                (0): ReplicationPad2d((1, 1, 1, 1))
                (1): Conv2d(13, 64, kernel_size=(3, 3), stride=(1, 1))
                (2): ReLU(inplace=True)
              )
              (relu): ReLU(inplace=True)
            )
            (1): ResBlock(
              (conv): Sequential(
                (0): ReplicationPad2d((1, 1, 1, 1))
                (1): Conv2d(64, 64, kernel_size=(3, 3), stride=(1, 1))
                (2): ReLU(inplace=True)
                (3): ReplicationPad2d((1, 1, 1, 1))
                (4): Conv2d(64, 128, kernel_size=(3, 3), stride=(1, 1))
              )
              (down): Sequential(
                (0): ReplicationPad2d((1, 1, 1, 1))
                (1): Conv2d(64, 128, kernel_size=(3, 3), stride=(1, 1))
                (2): ReLU(inplace=True)
              )
              (relu): ReLU(inplace=True)
            )
          )
          (8): Sequential(
            (0): ResBlock(
              (conv): Sequential(
                (0): ReplicationPad2d((1, 1, 1, 1))
                (1): Conv2d(13, 64, kernel_size=(3, 3), stride=(1, 1))
                (2): ReLU(inplace=True)
                (3): ReplicationPad2d((1, 1, 1, 1))
                (4): Conv2d(64, 64, kernel_size=(3, 3), stride=(1, 1))
              )
              (down): Sequential(
                (0): ReplicationPad2d((1, 1, 1, 1))
                (1): Conv2d(13, 64, kernel_size=(3, 3), stride=(1, 1))
                (2): ReLU(inplace=True)
              )
              (relu): ReLU(inplace=True)
            )
            (1): ResBlock(
              (conv): Sequential(
                (0): ReplicationPad2d((1, 1, 1, 1))
                (1): Conv2d(64, 64, kernel_size=(3, 3), stride=(1, 1))
                (2): ReLU(inplace=True)
                (3): ReplicationPad2d((1, 1, 1, 1))
                (4): Conv2d(64, 128, kernel_size=(3, 3), stride=(1, 1))
              )
              (down): Sequential(
                (0): ReplicationPad2d((1, 1, 1, 1))
                (1): Conv2d(64, 128, kernel_size=(3, 3), stride=(1, 1))
                (2): ReLU(inplace=True)
              )
              (relu): ReLU(inplace=True)
            )
          )
          (9): Sequential(
            (0): ResBlock(
              (conv): Sequential(
                (0): ReplicationPad2d((1, 1, 1, 1))
                (1): Conv2d(13, 64, kernel_size=(3, 3), stride=(1, 1))
                (2): ReLU(inplace=True)
                (3): ReplicationPad2d((1, 1, 1, 1))
                (4): Conv2d(64, 64, kernel_size=(3, 3), stride=(1, 1))
              )
              (down): Sequential(
                (0): ReplicationPad2d((1, 1, 1, 1))
                (1): Conv2d(13, 64, kernel_size=(3, 3), stride=(1, 1))
                (2): ReLU(inplace=True)
              )
              (relu): ReLU(inplace=True)
            )
            (1): ResBlock(
              (conv): Sequential(
                (0): ReplicationPad2d((1, 1, 1, 1))
                (1): Conv2d(64, 64, kernel_size=(3, 3), stride=(1, 1))
                (2): ReLU(inplace=True)
                (3): ReplicationPad2d((1, 1, 1, 1))
                (4): Conv2d(64, 128, kernel_size=(3, 3), stride=(1, 1))
              )
              (down): Sequential(
                (0): ReplicationPad2d((1, 1, 1, 1))
                (1): Conv2d(64, 128, kernel_size=(3, 3), stride=(1, 1))
                (2): ReLU(inplace=True)
              )
              (relu): ReLU(inplace=True)
            )
          )
        )
        (joint_encoder_layers): ModuleList(
          (0): Sequential(
            (0): ResBlock(
              (conv): Sequential(
                (0): ReplicationPad2d((1, 1, 1, 1))
                (1): Conv2d(128, 128, kernel_size=(3, 3), stride=(1, 1))
                (2): ReLU(inplace=True)
                (3): ReplicationPad2d((1, 1, 1, 1))
                (4): Conv2d(128, 128, kernel_size=(3, 3), stride=(1, 1))
              )
              (relu): ReLU(inplace=True)
            )
            (1): ResBlock(
              (conv): Sequential(
                (0): ReplicationPad2d((1, 1, 1, 1))
                (1): Conv2d(128, 128, kernel_size=(3, 3), stride=(1, 1))
                (2): ReLU(inplace=True)
                (3): ReplicationPad2d((1, 1, 1, 1))
                (4): Conv2d(128, 128, kernel_size=(3, 3), stride=(1, 1))
              )
              (relu): ReLU(inplace=True)
            )
          )
          (1): Sequential(
            (0): ResBlock(
              (conv): Sequential(
                (0): ReplicationPad2d((1, 1, 1, 1))
                (1): Conv2d(128, 128, kernel_size=(3, 3), stride=(2, 2))
                (2): ReLU(inplace=True)
                (3): ReplicationPad2d((1, 1, 1, 1))
                (4): Conv2d(128, 128, kernel_size=(3, 3), stride=(1, 1))
              )
              (down): Sequential(
                (0): ReplicationPad2d((1, 1, 1, 1))
                (1): Conv2d(128, 128, kernel_size=(3, 3), stride=(2, 2))
                (2): ReLU(inplace=True)
              )
              (relu): ReLU(inplace=True)
            )
            (1): ResBlock(
              (conv): Sequential(
                (0): ReplicationPad2d((1, 1, 1, 1))
                (1): Conv2d(128, 128, kernel_size=(3, 3), stride=(1, 1))
                (2): ReLU(inplace=True)
                (3): ReplicationPad2d((1, 1, 1, 1))
                (4): Conv2d(128, 128, kernel_size=(3, 3), stride=(1, 1))
              )
              (relu): ReLU(inplace=True)
            )
          )
          (2): Sequential(
            (0): ResBlock(
              (conv): Sequential(
                (0): ReplicationPad2d((1, 1, 1, 1))
                (1): Conv2d(128, 128, kernel_size=(3, 3), stride=(2, 2))
                (2): ReLU(inplace=True)
                (3): ReplicationPad2d((1, 1, 1, 1))
                (4): Conv2d(128, 128, kernel_size=(3, 3), stride=(1, 1))
              )
              (down): Sequential(
                (0): ReplicationPad2d((1, 1, 1, 1))
                (1): Conv2d(128, 128, kernel_size=(3, 3), stride=(2, 2))
                (2): ReLU(inplace=True)
              )
              (relu): ReLU(inplace=True)
            )
            (1): ResBlock(
              (conv): Sequential(
                (0): ReplicationPad2d((1, 1, 1, 1))
                (1): Conv2d(128, 128, kernel_size=(3, 3), stride=(1, 1))
                (2): ReLU(inplace=True)
                (3): ReplicationPad2d((1, 1, 1, 1))
                (4): Conv2d(128, 128, kernel_size=(3, 3), stride=(1, 1))
              )
              (relu): ReLU(inplace=True)
            )
          )
          (3): Sequential(
            (0): ResBlock(
              (conv): Sequential(
                (0): ReplicationPad2d((1, 1, 1, 1))
                (1): Conv2d(128, 128, kernel_size=(3, 3), stride=(2, 2))
                (2): ReLU(inplace=True)
                (3): ReplicationPad2d((1, 1, 1, 1))
                (4): Conv2d(128, 128, kernel_size=(3, 3), stride=(1, 1))
              )
              (down): Sequential(
                (0): ReplicationPad2d((1, 1, 1, 1))
                (1): Conv2d(128, 128, kernel_size=(3, 3), stride=(2, 2))
                (2): ReLU(inplace=True)
              )
              (relu): ReLU(inplace=True)
            )
            (1): ResBlock(
              (conv): Sequential(
                (0): ReplicationPad2d((1, 1, 1, 1))
                (1): Conv2d(128, 128, kernel_size=(3, 3), stride=(1, 1))
                (2): ReLU(inplace=True)
                (3): ReplicationPad2d((1, 1, 1, 1))
                (4): Conv2d(128, 128, kernel_size=(3, 3), stride=(1, 1))
              )
              (relu): ReLU(inplace=True)
            )
          )
        )
      )
      (layer1): Sequential(
        (0): BasicBlock(
          (conv1): Sequential(
            (0): ReplicationPad2d((1, 1, 1, 1))
            (1): Conv2d(16, 16, kernel_size=(3, 3), stride=(1, 1), bias=False)
          )
          (bn1): GBufferNorm(
            (_norm): GroupNorm(8, 16, eps=1e-05, affine=False)
            (_conv): Sequential(
              (0): ResBlock(
                (conv): Sequential(
                  (0): ReplicationPad2d((1, 1, 1, 1))
                  (1): Conv2d(128, 128, kernel_size=(3, 3), stride=(1, 1))
                  (2): ReLU(inplace=True)
                )
                (relu): ReLU(inplace=True)
              )
              (1): ResBlock(
                (conv): Sequential(
                  (0): ReplicationPad2d((1, 1, 1, 1))
                  (1): Conv2d(128, 128, kernel_size=(3, 3), stride=(1, 1))
                  (2): ReLU(inplace=True)
                )
                (relu): ReLU(inplace=True)
              )
              (2): ResBlock(
                (conv): Sequential(
                  (0): ReplicationPad2d((1, 1, 1, 1))
                  (1): Conv2d(128, 128, kernel_size=(3, 3), stride=(1, 1))
                  (2): ReLU(inplace=True)
                )
                (relu): ReLU(inplace=True)
              )
            )
            (_scale): Conv2d(128, 16, kernel_size=(1, 1), stride=(1, 1))
            (_bias): Conv2d(128, 16, kernel_size=(1, 1), stride=(1, 1))
          )
          (relu): ReLU()
          (conv2): Sequential(
            (0): ReLU(inplace=True)
            (1): Sequential(
              (0): ReplicationPad2d((1, 1, 1, 1))
              (1): Conv2d(16, 16, kernel_size=(3, 3), stride=(1, 1), bias=False)
            )
          )
          (bn2): GBufferNorm(
            (_norm): GroupNorm(8, 16, eps=1e-05, affine=False)
            (_conv): Sequential(
              (0): ResBlock(
                (conv): Sequential(
                  (0): ReplicationPad2d((1, 1, 1, 1))
                  (1): Conv2d(128, 128, kernel_size=(3, 3), stride=(1, 1))
                  (2): ReLU(inplace=True)
                )
                (relu): ReLU(inplace=True)
              )
              (1): ResBlock(
                (conv): Sequential(
                  (0): ReplicationPad2d((1, 1, 1, 1))
                  (1): Conv2d(128, 128, kernel_size=(3, 3), stride=(1, 1))
                  (2): ReLU(inplace=True)
                )
                (relu): ReLU(inplace=True)
              )
              (2): ResBlock(
                (conv): Sequential(
                  (0): ReplicationPad2d((1, 1, 1, 1))
                  (1): Conv2d(128, 128, kernel_size=(3, 3), stride=(1, 1))
                  (2): ReLU(inplace=True)
                )
                (relu): ReLU(inplace=True)
              )
            )
            (_scale): Conv2d(128, 16, kernel_size=(1, 1), stride=(1, 1))
            (_bias): Conv2d(128, 16, kernel_size=(1, 1), stride=(1, 1))
          )
        )
        (1): BasicBlock(
          (conv1): Sequential(
            (0): ReplicationPad2d((1, 1, 1, 1))
            (1): Conv2d(16, 16, kernel_size=(3, 3), stride=(1, 1), bias=False)
          )
          (bn1): GBufferNorm(
            (_norm): GroupNorm(8, 16, eps=1e-05, affine=False)
            (_conv): Sequential(
              (0): ResBlock(
                (conv): Sequential(
                  (0): ReplicationPad2d((1, 1, 1, 1))
                  (1): Conv2d(128, 128, kernel_size=(3, 3), stride=(1, 1))
                  (2): ReLU(inplace=True)
                )
                (relu): ReLU(inplace=True)
              )
              (1): ResBlock(
                (conv): Sequential(
                  (0): ReplicationPad2d((1, 1, 1, 1))
                  (1): Conv2d(128, 128, kernel_size=(3, 3), stride=(1, 1))
                  (2): ReLU(inplace=True)
                )
                (relu): ReLU(inplace=True)
              )
              (2): ResBlock(
                (conv): Sequential(
                  (0): ReplicationPad2d((1, 1, 1, 1))
                  (1): Conv2d(128, 128, kernel_size=(3, 3), stride=(1, 1))
                  (2): ReLU(inplace=True)
                )
                (relu): ReLU(inplace=True)
              )
            )
            (_scale): Conv2d(128, 16, kernel_size=(1, 1), stride=(1, 1))
            (_bias): Conv2d(128, 16, kernel_size=(1, 1), stride=(1, 1))
          )
          (relu): ReLU()
          (conv2): Sequential(
            (0): ReLU(inplace=True)
            (1): Sequential(
              (0): ReplicationPad2d((1, 1, 1, 1))
              (1): Conv2d(16, 16, kernel_size=(3, 3), stride=(1, 1), bias=False)
            )
          )
          (bn2): GBufferNorm(
            (_norm): GroupNorm(8, 16, eps=1e-05, affine=False)
            (_conv): Sequential(
              (0): ResBlock(
                (conv): Sequential(
                  (0): ReplicationPad2d((1, 1, 1, 1))
                  (1): Conv2d(128, 128, kernel_size=(3, 3), stride=(1, 1))
                  (2): ReLU(inplace=True)
                )
                (relu): ReLU(inplace=True)
              )
              (1): ResBlock(
                (conv): Sequential(
                  (0): ReplicationPad2d((1, 1, 1, 1))
                  (1): Conv2d(128, 128, kernel_size=(3, 3), stride=(1, 1))
                  (2): ReLU(inplace=True)
                )
                (relu): ReLU(inplace=True)
              )
              (2): ResBlock(
                (conv): Sequential(
                  (0): ReplicationPad2d((1, 1, 1, 1))
                  (1): Conv2d(128, 128, kernel_size=(3, 3), stride=(1, 1))
                  (2): ReLU(inplace=True)
                )
                (relu): ReLU(inplace=True)
              )
            )
            (_scale): Conv2d(128, 16, kernel_size=(1, 1), stride=(1, 1))
            (_bias): Conv2d(128, 16, kernel_size=(1, 1), stride=(1, 1))
          )
        )
        (2): BasicBlock(
          (conv1): Sequential(
            (0): ReplicationPad2d((1, 1, 1, 1))
            (1): Conv2d(16, 16, kernel_size=(3, 3), stride=(1, 1), bias=False)
          )
          (bn1): GBufferNorm(
            (_norm): GroupNorm(8, 16, eps=1e-05, affine=False)
            (_conv): Sequential(
              (0): ResBlock(
                (conv): Sequential(
                  (0): ReplicationPad2d((1, 1, 1, 1))
                  (1): Conv2d(128, 128, kernel_size=(3, 3), stride=(1, 1))
                  (2): ReLU(inplace=True)
                )
                (relu): ReLU(inplace=True)
              )
              (1): ResBlock(
                (conv): Sequential(
                  (0): ReplicationPad2d((1, 1, 1, 1))
                  (1): Conv2d(128, 128, kernel_size=(3, 3), stride=(1, 1))
                  (2): ReLU(inplace=True)
                )
                (relu): ReLU(inplace=True)
              )
              (2): ResBlock(
                (conv): Sequential(
                  (0): ReplicationPad2d((1, 1, 1, 1))
                  (1): Conv2d(128, 128, kernel_size=(3, 3), stride=(1, 1))
                  (2): ReLU(inplace=True)
                )
                (relu): ReLU(inplace=True)
              )
            )
            (_scale): Conv2d(128, 16, kernel_size=(1, 1), stride=(1, 1))
            (_bias): Conv2d(128, 16, kernel_size=(1, 1), stride=(1, 1))
          )
          (relu): ReLU()
          (conv2): Sequential(
            (0): ReLU(inplace=True)
            (1): Sequential(
              (0): ReplicationPad2d((1, 1, 1, 1))
              (1): Conv2d(16, 16, kernel_size=(3, 3), stride=(1, 1), bias=False)
            )
          )
          (bn2): GBufferNorm(
            (_norm): GroupNorm(8, 16, eps=1e-05, affine=False)
            (_conv): Sequential(
              (0): ResBlock(
                (conv): Sequential(
                  (0): ReplicationPad2d((1, 1, 1, 1))
                  (1): Conv2d(128, 128, kernel_size=(3, 3), stride=(1, 1))
                  (2): ReLU(inplace=True)
                )
                (relu): ReLU(inplace=True)
              )
              (1): ResBlock(
                (conv): Sequential(
                  (0): ReplicationPad2d((1, 1, 1, 1))
                  (1): Conv2d(128, 128, kernel_size=(3, 3), stride=(1, 1))
                  (2): ReLU(inplace=True)
                )
                (relu): ReLU(inplace=True)
              )
              (2): ResBlock(
                (conv): Sequential(
                  (0): ReplicationPad2d((1, 1, 1, 1))
                  (1): Conv2d(128, 128, kernel_size=(3, 3), stride=(1, 1))
                  (2): ReLU(inplace=True)
                )
                (relu): ReLU(inplace=True)
              )
            )
            (_scale): Conv2d(128, 16, kernel_size=(1, 1), stride=(1, 1))
            (_bias): Conv2d(128, 16, kernel_size=(1, 1), stride=(1, 1))
          )
        )
        (3): BasicBlock(
          (conv1): Sequential(
            (0): ReplicationPad2d((1, 1, 1, 1))
            (1): Conv2d(16, 16, kernel_size=(3, 3), stride=(1, 1), bias=False)
          )
          (bn1): GBufferNorm(
            (_norm): GroupNorm(8, 16, eps=1e-05, affine=False)
            (_conv): Sequential(
              (0): ResBlock(
                (conv): Sequential(
                  (0): ReplicationPad2d((1, 1, 1, 1))
                  (1): Conv2d(128, 128, kernel_size=(3, 3), stride=(1, 1))
                  (2): ReLU(inplace=True)
                )
                (relu): ReLU(inplace=True)
              )
              (1): ResBlock(
                (conv): Sequential(
                  (0): ReplicationPad2d((1, 1, 1, 1))
                  (1): Conv2d(128, 128, kernel_size=(3, 3), stride=(1, 1))
                  (2): ReLU(inplace=True)
                )
                (relu): ReLU(inplace=True)
              )
              (2): ResBlock(
                (conv): Sequential(
                  (0): ReplicationPad2d((1, 1, 1, 1))
                  (1): Conv2d(128, 128, kernel_size=(3, 3), stride=(1, 1))
                  (2): ReLU(inplace=True)
                )
                (relu): ReLU(inplace=True)
              )
            )
            (_scale): Conv2d(128, 16, kernel_size=(1, 1), stride=(1, 1))
            (_bias): Conv2d(128, 16, kernel_size=(1, 1), stride=(1, 1))
          )
          (relu): ReLU()
          (conv2): Sequential(
            (0): ReLU(inplace=True)
            (1): Sequential(
              (0): ReplicationPad2d((1, 1, 1, 1))
              (1): Conv2d(16, 16, kernel_size=(3, 3), stride=(1, 1), bias=False)
            )
          )
          (bn2): GBufferNorm(
            (_norm): GroupNorm(8, 16, eps=1e-05, affine=False)
            (_conv): Sequential(
              (0): ResBlock(
                (conv): Sequential(
                  (0): ReplicationPad2d((1, 1, 1, 1))
                  (1): Conv2d(128, 128, kernel_size=(3, 3), stride=(1, 1))
                  (2): ReLU(inplace=True)
                )
                (relu): ReLU(inplace=True)
              )
              (1): ResBlock(
                (conv): Sequential(
                  (0): ReplicationPad2d((1, 1, 1, 1))
                  (1): Conv2d(128, 128, kernel_size=(3, 3), stride=(1, 1))
                  (2): ReLU(inplace=True)
                )
                (relu): ReLU(inplace=True)
              )
              (2): ResBlock(
                (conv): Sequential(
                  (0): ReplicationPad2d((1, 1, 1, 1))
                  (1): Conv2d(128, 128, kernel_size=(3, 3), stride=(1, 1))
                  (2): ReLU(inplace=True)
                )
                (relu): ReLU(inplace=True)
              )
            )
            (_scale): Conv2d(128, 16, kernel_size=(1, 1), stride=(1, 1))
            (_bias): Conv2d(128, 16, kernel_size=(1, 1), stride=(1, 1))
          )
        )
      )
      (transitions): ModuleList(
        (0): ModuleList(
          (0): None
          (1): Sequential(
            (0): Sequential(
              (0): Conv2d(16, 32, kernel_size=(3, 3), stride=(2, 2), padding=(1, 1), bias=False)
              (1): GroupNorm(8, 32, eps=1e-05, affine=True)
              (2): ReLU()
            )
          )
        )
        (1): ModuleList(
          (0): None
          (1): None
          (2): Sequential(
            (0): Sequential(
              (0): Conv2d(32, 64, kernel_size=(3, 3), stride=(2, 2), padding=(1, 1), bias=False)
              (1): GroupNorm(8, 64, eps=1e-05, affine=True)
              (2): ReLU()
            )
          )
        )
        (2): ModuleList(
          (0): None
          (1): None
          (2): None
          (3): Sequential(
            (0): Sequential(
              (0): Conv2d(64, 128, kernel_size=(3, 3), stride=(2, 2), padding=(1, 1), bias=False)
              (1): GroupNorm(8, 128, eps=1e-05, affine=True)
              (2): ReLU()
            )
          )
        )
      )
      (stages): ModuleList(
        (0): Sequential(
          (0): HighResolutionModule(
            (branches): ModuleList(
              (0): Sequential(
                (0): BasicBlock(
                  (conv1): Sequential(
                    (0): ReplicationPad2d((1, 1, 1, 1))
                    (1): Conv2d(16, 16, kernel_size=(3, 3), stride=(1, 1), bias=False)
                  )
                  (bn1): GBufferNorm(
                    (_norm): GroupNorm(8, 16, eps=1e-05, affine=False)
                    (_conv): Sequential(
                      (0): ResBlock(
                        (conv): Sequential(
                          (0): ReplicationPad2d((1, 1, 1, 1))
                          (1): Conv2d(128, 128, kernel_size=(3, 3), stride=(1, 1))
                          (2): ReLU(inplace=True)
                        )
                        (relu): ReLU(inplace=True)
                      )
                      (1): ResBlock(
                        (conv): Sequential(
                          (0): ReplicationPad2d((1, 1, 1, 1))
                          (1): Conv2d(128, 128, kernel_size=(3, 3), stride=(1, 1))
                          (2): ReLU(inplace=True)
                        )
                        (relu): ReLU(inplace=True)
                      )
                      (2): ResBlock(
                        (conv): Sequential(
                          (0): ReplicationPad2d((1, 1, 1, 1))
                          (1): Conv2d(128, 128, kernel_size=(3, 3), stride=(1, 1))
                          (2): ReLU(inplace=True)
                        )
                        (relu): ReLU(inplace=True)
                      )
                    )
                    (_scale): Conv2d(128, 16, kernel_size=(1, 1), stride=(1, 1))
                    (_bias): Conv2d(128, 16, kernel_size=(1, 1), stride=(1, 1))
                  )
                  (relu): ReLU()
                  (conv2): Sequential(
                    (0): ReLU(inplace=True)
                    (1): Sequential(
                      (0): ReplicationPad2d((1, 1, 1, 1))
                      (1): Conv2d(16, 16, kernel_size=(3, 3), stride=(1, 1), bias=False)
                    )
                  )
                  (bn2): GBufferNorm(
                    (_norm): GroupNorm(8, 16, eps=1e-05, affine=False)
                    (_conv): Sequential(
                      (0): ResBlock(
                        (conv): Sequential(
                          (0): ReplicationPad2d((1, 1, 1, 1))
                          (1): Conv2d(128, 128, kernel_size=(3, 3), stride=(1, 1))
                          (2): ReLU(inplace=True)
                        )
                        (relu): ReLU(inplace=True)
                      )
                      (1): ResBlock(
                        (conv): Sequential(
                          (0): ReplicationPad2d((1, 1, 1, 1))
                          (1): Conv2d(128, 128, kernel_size=(3, 3), stride=(1, 1))
                          (2): ReLU(inplace=True)
                        )
                        (relu): ReLU(inplace=True)
                      )
                      (2): ResBlock(
                        (conv): Sequential(
                          (0): ReplicationPad2d((1, 1, 1, 1))
                          (1): Conv2d(128, 128, kernel_size=(3, 3), stride=(1, 1))
                          (2): ReLU(inplace=True)
                        )
                        (relu): ReLU(inplace=True)
                      )
                    )
                    (_scale): Conv2d(128, 16, kernel_size=(1, 1), stride=(1, 1))
                    (_bias): Conv2d(128, 16, kernel_size=(1, 1), stride=(1, 1))
                  )
                )
                (1): BasicBlock(
                  (conv1): Sequential(
                    (0): ReplicationPad2d((1, 1, 1, 1))
                    (1): Conv2d(16, 16, kernel_size=(3, 3), stride=(1, 1), bias=False)
                  )
                  (bn1): GBufferNorm(
                    (_norm): GroupNorm(8, 16, eps=1e-05, affine=False)
                    (_conv): Sequential(
                      (0): ResBlock(
                        (conv): Sequential(
                          (0): ReplicationPad2d((1, 1, 1, 1))
                          (1): Conv2d(128, 128, kernel_size=(3, 3), stride=(1, 1))
                          (2): ReLU(inplace=True)
                        )
                        (relu): ReLU(inplace=True)
                      )
                      (1): ResBlock(
                        (conv): Sequential(
                          (0): ReplicationPad2d((1, 1, 1, 1))
                          (1): Conv2d(128, 128, kernel_size=(3, 3), stride=(1, 1))
                          (2): ReLU(inplace=True)
                        )
                        (relu): ReLU(inplace=True)
                      )
                      (2): ResBlock(
                        (conv): Sequential(
                          (0): ReplicationPad2d((1, 1, 1, 1))
                          (1): Conv2d(128, 128, kernel_size=(3, 3), stride=(1, 1))
                          (2): ReLU(inplace=True)
                        )
                        (relu): ReLU(inplace=True)
                      )
                    )
                    (_scale): Conv2d(128, 16, kernel_size=(1, 1), stride=(1, 1))
                    (_bias): Conv2d(128, 16, kernel_size=(1, 1), stride=(1, 1))
                  )
                  (relu): ReLU()
                  (conv2): Sequential(
                    (0): ReLU(inplace=True)
                    (1): Sequential(
                      (0): ReplicationPad2d((1, 1, 1, 1))
                      (1): Conv2d(16, 16, kernel_size=(3, 3), stride=(1, 1), bias=False)
                    )
                  )
                  (bn2): GBufferNorm(
                    (_norm): GroupNorm(8, 16, eps=1e-05, affine=False)
                    (_conv): Sequential(
                      (0): ResBlock(
                        (conv): Sequential(
                          (0): ReplicationPad2d((1, 1, 1, 1))
                          (1): Conv2d(128, 128, kernel_size=(3, 3), stride=(1, 1))
                          (2): ReLU(inplace=True)
                        )
                        (relu): ReLU(inplace=True)
                      )
                      (1): ResBlock(
                        (conv): Sequential(
                          (0): ReplicationPad2d((1, 1, 1, 1))
                          (1): Conv2d(128, 128, kernel_size=(3, 3), stride=(1, 1))
                          (2): ReLU(inplace=True)
                        )
                        (relu): ReLU(inplace=True)
                      )
                      (2): ResBlock(
                        (conv): Sequential(
                          (0): ReplicationPad2d((1, 1, 1, 1))
                          (1): Conv2d(128, 128, kernel_size=(3, 3), stride=(1, 1))
                          (2): ReLU(inplace=True)
                        )
                        (relu): ReLU(inplace=True)
                      )
                    )
                    (_scale): Conv2d(128, 16, kernel_size=(1, 1), stride=(1, 1))
                    (_bias): Conv2d(128, 16, kernel_size=(1, 1), stride=(1, 1))
                  )
                )
                (2): BasicBlock(
                  (conv1): Sequential(
                    (0): ReplicationPad2d((1, 1, 1, 1))
                    (1): Conv2d(16, 16, kernel_size=(3, 3), stride=(1, 1), bias=False)
                  )
                  (bn1): GBufferNorm(
                    (_norm): GroupNorm(8, 16, eps=1e-05, affine=False)
                    (_conv): Sequential(
                      (0): ResBlock(
                        (conv): Sequential(
                          (0): ReplicationPad2d((1, 1, 1, 1))
                          (1): Conv2d(128, 128, kernel_size=(3, 3), stride=(1, 1))
                          (2): ReLU(inplace=True)
                        )
                        (relu): ReLU(inplace=True)
                      )
                      (1): ResBlock(
                        (conv): Sequential(
                          (0): ReplicationPad2d((1, 1, 1, 1))
                          (1): Conv2d(128, 128, kernel_size=(3, 3), stride=(1, 1))
                          (2): ReLU(inplace=True)
                        )
                        (relu): ReLU(inplace=True)
                      )
                      (2): ResBlock(
                        (conv): Sequential(
                          (0): ReplicationPad2d((1, 1, 1, 1))
                          (1): Conv2d(128, 128, kernel_size=(3, 3), stride=(1, 1))
                          (2): ReLU(inplace=True)
                        )
                        (relu): ReLU(inplace=True)
                      )
                    )
                    (_scale): Conv2d(128, 16, kernel_size=(1, 1), stride=(1, 1))
                    (_bias): Conv2d(128, 16, kernel_size=(1, 1), stride=(1, 1))
                  )
                  (relu): ReLU()
                  (conv2): Sequential(
                    (0): ReLU(inplace=True)
                    (1): Sequential(
                      (0): ReplicationPad2d((1, 1, 1, 1))
                      (1): Conv2d(16, 16, kernel_size=(3, 3), stride=(1, 1), bias=False)
                    )
                  )
                  (bn2): GBufferNorm(
                    (_norm): GroupNorm(8, 16, eps=1e-05, affine=False)
                    (_conv): Sequential(
                      (0): ResBlock(
                        (conv): Sequential(
                          (0): ReplicationPad2d((1, 1, 1, 1))
                          (1): Conv2d(128, 128, kernel_size=(3, 3), stride=(1, 1))
                          (2): ReLU(inplace=True)
                        )
                        (relu): ReLU(inplace=True)
                      )
                      (1): ResBlock(
                        (conv): Sequential(
                          (0): ReplicationPad2d((1, 1, 1, 1))
                          (1): Conv2d(128, 128, kernel_size=(3, 3), stride=(1, 1))
                          (2): ReLU(inplace=True)
                        )
                        (relu): ReLU(inplace=True)
                      )
                      (2): ResBlock(
                        (conv): Sequential(
                          (0): ReplicationPad2d((1, 1, 1, 1))
                          (1): Conv2d(128, 128, kernel_size=(3, 3), stride=(1, 1))
                          (2): ReLU(inplace=True)
                        )
                        (relu): ReLU(inplace=True)
                      )
                    )
                    (_scale): Conv2d(128, 16, kernel_size=(1, 1), stride=(1, 1))
                    (_bias): Conv2d(128, 16, kernel_size=(1, 1), stride=(1, 1))
                  )
                )
                (3): BasicBlock(
                  (conv1): Sequential(
                    (0): ReplicationPad2d((1, 1, 1, 1))
                    (1): Conv2d(16, 16, kernel_size=(3, 3), stride=(1, 1), bias=False)
                  )
                  (bn1): GBufferNorm(
                    (_norm): GroupNorm(8, 16, eps=1e-05, affine=False)
                    (_conv): Sequential(
                      (0): ResBlock(
                        (conv): Sequential(
                          (0): ReplicationPad2d((1, 1, 1, 1))
                          (1): Conv2d(128, 128, kernel_size=(3, 3), stride=(1, 1))
                          (2): ReLU(inplace=True)
                        )
                        (relu): ReLU(inplace=True)
                      )
                      (1): ResBlock(
                        (conv): Sequential(
                          (0): ReplicationPad2d((1, 1, 1, 1))
                          (1): Conv2d(128, 128, kernel_size=(3, 3), stride=(1, 1))
                          (2): ReLU(inplace=True)
                        )
                        (relu): ReLU(inplace=True)
                      )
                      (2): ResBlock(
                        (conv): Sequential(
                          (0): ReplicationPad2d((1, 1, 1, 1))
                          (1): Conv2d(128, 128, kernel_size=(3, 3), stride=(1, 1))
                          (2): ReLU(inplace=True)
                        )
                        (relu): ReLU(inplace=True)
                      )
                    )
                    (_scale): Conv2d(128, 16, kernel_size=(1, 1), stride=(1, 1))
                    (_bias): Conv2d(128, 16, kernel_size=(1, 1), stride=(1, 1))
                  )
                  (relu): ReLU()
                  (conv2): Sequential(
                    (0): ReLU(inplace=True)
                    (1): Sequential(
                      (0): ReplicationPad2d((1, 1, 1, 1))
                      (1): Conv2d(16, 16, kernel_size=(3, 3), stride=(1, 1), bias=False)
                    )
                  )
                  (bn2): GBufferNorm(
                    (_norm): GroupNorm(8, 16, eps=1e-05, affine=False)
                    (_conv): Sequential(
                      (0): ResBlock(
                        (conv): Sequential(
                          (0): ReplicationPad2d((1, 1, 1, 1))
                          (1): Conv2d(128, 128, kernel_size=(3, 3), stride=(1, 1))
                          (2): ReLU(inplace=True)
                        )
                        (relu): ReLU(inplace=True)
                      )
                      (1): ResBlock(
                        (conv): Sequential(
                          (0): ReplicationPad2d((1, 1, 1, 1))
                          (1): Conv2d(128, 128, kernel_size=(3, 3), stride=(1, 1))
                          (2): ReLU(inplace=True)
                        )
                        (relu): ReLU(inplace=True)
                      )
                      (2): ResBlock(
                        (conv): Sequential(
                          (0): ReplicationPad2d((1, 1, 1, 1))
                          (1): Conv2d(128, 128, kernel_size=(3, 3), stride=(1, 1))
                          (2): ReLU(inplace=True)
                        )
                        (relu): ReLU(inplace=True)
                      )
                    )
                    (_scale): Conv2d(128, 16, kernel_size=(1, 1), stride=(1, 1))
                    (_bias): Conv2d(128, 16, kernel_size=(1, 1), stride=(1, 1))
                  )
                )
              )
              (1): Sequential(
                (0): BasicBlock(
                  (conv1): Sequential(
                    (0): ReplicationPad2d((1, 1, 1, 1))
                    (1): Conv2d(32, 32, kernel_size=(3, 3), stride=(1, 1), bias=False)
                  )
                  (bn1): GBufferNorm(
                    (_norm): GroupNorm(8, 32, eps=1e-05, affine=False)
                    (_conv): Sequential(
                      (0): ResBlock(
                        (conv): Sequential(
                          (0): ReplicationPad2d((1, 1, 1, 1))
                          (1): Conv2d(128, 128, kernel_size=(3, 3), stride=(1, 1))
                          (2): ReLU(inplace=True)
                        )
                        (relu): ReLU(inplace=True)
                      )
                      (1): ResBlock(
                        (conv): Sequential(
                          (0): ReplicationPad2d((1, 1, 1, 1))
                          (1): Conv2d(128, 128, kernel_size=(3, 3), stride=(1, 1))
                          (2): ReLU(inplace=True)
                        )
                        (relu): ReLU(inplace=True)
                      )
                      (2): ResBlock(
                        (conv): Sequential(
                          (0): ReplicationPad2d((1, 1, 1, 1))
                          (1): Conv2d(128, 128, kernel_size=(3, 3), stride=(1, 1))
                          (2): ReLU(inplace=True)
                        )
                        (relu): ReLU(inplace=True)
                      )
                    )
                    (_scale): Conv2d(128, 32, kernel_size=(1, 1), stride=(1, 1))
                    (_bias): Conv2d(128, 32, kernel_size=(1, 1), stride=(1, 1))
                  )
                  (relu): ReLU()
                  (conv2): Sequential(
                    (0): ReLU(inplace=True)
                    (1): Sequential(
                      (0): ReplicationPad2d((1, 1, 1, 1))
                      (1): Conv2d(32, 32, kernel_size=(3, 3), stride=(1, 1), bias=False)
                    )
                  )
                  (bn2): GBufferNorm(
                    (_norm): GroupNorm(8, 32, eps=1e-05, affine=False)
                    (_conv): Sequential(
                      (0): ResBlock(
                        (conv): Sequential(
                          (0): ReplicationPad2d((1, 1, 1, 1))
                          (1): Conv2d(128, 128, kernel_size=(3, 3), stride=(1, 1))
                          (2): ReLU(inplace=True)
                        )
                        (relu): ReLU(inplace=True)
                      )
                      (1): ResBlock(
                        (conv): Sequential(
                          (0): ReplicationPad2d((1, 1, 1, 1))
                          (1): Conv2d(128, 128, kernel_size=(3, 3), stride=(1, 1))
                          (2): ReLU(inplace=True)
                        )
                        (relu): ReLU(inplace=True)
                      )
                      (2): ResBlock(
                        (conv): Sequential(
                          (0): ReplicationPad2d((1, 1, 1, 1))
                          (1): Conv2d(128, 128, kernel_size=(3, 3), stride=(1, 1))
                          (2): ReLU(inplace=True)
                        )
                        (relu): ReLU(inplace=True)
                      )
                    )
                    (_scale): Conv2d(128, 32, kernel_size=(1, 1), stride=(1, 1))
                    (_bias): Conv2d(128, 32, kernel_size=(1, 1), stride=(1, 1))
                  )
                )
                (1): BasicBlock(
                  (conv1): Sequential(
                    (0): ReplicationPad2d((1, 1, 1, 1))
                    (1): Conv2d(32, 32, kernel_size=(3, 3), stride=(1, 1), bias=False)
                  )
                  (bn1): GBufferNorm(
                    (_norm): GroupNorm(8, 32, eps=1e-05, affine=False)
                    (_conv): Sequential(
                      (0): ResBlock(
                        (conv): Sequential(
                          (0): ReplicationPad2d((1, 1, 1, 1))
                          (1): Conv2d(128, 128, kernel_size=(3, 3), stride=(1, 1))
                          (2): ReLU(inplace=True)
                        )
                        (relu): ReLU(inplace=True)
                      )
                      (1): ResBlock(
                        (conv): Sequential(
                          (0): ReplicationPad2d((1, 1, 1, 1))
                          (1): Conv2d(128, 128, kernel_size=(3, 3), stride=(1, 1))
                          (2): ReLU(inplace=True)
                        )
                        (relu): ReLU(inplace=True)
                      )
                      (2): ResBlock(
                        (conv): Sequential(
                          (0): ReplicationPad2d((1, 1, 1, 1))
                          (1): Conv2d(128, 128, kernel_size=(3, 3), stride=(1, 1))
                          (2): ReLU(inplace=True)
                        )
                        (relu): ReLU(inplace=True)
                      )
                    )
                    (_scale): Conv2d(128, 32, kernel_size=(1, 1), stride=(1, 1))
                    (_bias): Conv2d(128, 32, kernel_size=(1, 1), stride=(1, 1))
                  )
                  (relu): ReLU()
                  (conv2): Sequential(
                    (0): ReLU(inplace=True)
                    (1): Sequential(
                      (0): ReplicationPad2d((1, 1, 1, 1))
                      (1): Conv2d(32, 32, kernel_size=(3, 3), stride=(1, 1), bias=False)
                    )
                  )
                  (bn2): GBufferNorm(
                    (_norm): GroupNorm(8, 32, eps=1e-05, affine=False)
                    (_conv): Sequential(
                      (0): ResBlock(
                        (conv): Sequential(
                          (0): ReplicationPad2d((1, 1, 1, 1))
                          (1): Conv2d(128, 128, kernel_size=(3, 3), stride=(1, 1))
                          (2): ReLU(inplace=True)
                        )
                        (relu): ReLU(inplace=True)
                      )
                      (1): ResBlock(
                        (conv): Sequential(
                          (0): ReplicationPad2d((1, 1, 1, 1))
                          (1): Conv2d(128, 128, kernel_size=(3, 3), stride=(1, 1))
                          (2): ReLU(inplace=True)
                        )
                        (relu): ReLU(inplace=True)
                      )
                      (2): ResBlock(
                        (conv): Sequential(
                          (0): ReplicationPad2d((1, 1, 1, 1))
                          (1): Conv2d(128, 128, kernel_size=(3, 3), stride=(1, 1))
                          (2): ReLU(inplace=True)
                        )
                        (relu): ReLU(inplace=True)
                      )
                    )
                    (_scale): Conv2d(128, 32, kernel_size=(1, 1), stride=(1, 1))
                    (_bias): Conv2d(128, 32, kernel_size=(1, 1), stride=(1, 1))
                  )
                )
                (2): BasicBlock(
                  (conv1): Sequential(
                    (0): ReplicationPad2d((1, 1, 1, 1))
                    (1): Conv2d(32, 32, kernel_size=(3, 3), stride=(1, 1), bias=False)
                  )
                  (bn1): GBufferNorm(
                    (_norm): GroupNorm(8, 32, eps=1e-05, affine=False)
                    (_conv): Sequential(
                      (0): ResBlock(
                        (conv): Sequential(
                          (0): ReplicationPad2d((1, 1, 1, 1))
                          (1): Conv2d(128, 128, kernel_size=(3, 3), stride=(1, 1))
                          (2): ReLU(inplace=True)
                        )
                        (relu): ReLU(inplace=True)
                      )
                      (1): ResBlock(
                        (conv): Sequential(
                          (0): ReplicationPad2d((1, 1, 1, 1))
                          (1): Conv2d(128, 128, kernel_size=(3, 3), stride=(1, 1))
                          (2): ReLU(inplace=True)
                        )
                        (relu): ReLU(inplace=True)
                      )
                      (2): ResBlock(
                        (conv): Sequential(
                          (0): ReplicationPad2d((1, 1, 1, 1))
                          (1): Conv2d(128, 128, kernel_size=(3, 3), stride=(1, 1))
                          (2): ReLU(inplace=True)
                        )
                        (relu): ReLU(inplace=True)
                      )
                    )
                    (_scale): Conv2d(128, 32, kernel_size=(1, 1), stride=(1, 1))
                    (_bias): Conv2d(128, 32, kernel_size=(1, 1), stride=(1, 1))
                  )
                  (relu): ReLU()
                  (conv2): Sequential(
                    (0): ReLU(inplace=True)
                    (1): Sequential(
                      (0): ReplicationPad2d((1, 1, 1, 1))
                      (1): Conv2d(32, 32, kernel_size=(3, 3), stride=(1, 1), bias=False)
                    )
                  )
                  (bn2): GBufferNorm(
                    (_norm): GroupNorm(8, 32, eps=1e-05, affine=False)
                    (_conv): Sequential(
                      (0): ResBlock(
                        (conv): Sequential(
                          (0): ReplicationPad2d((1, 1, 1, 1))
                          (1): Conv2d(128, 128, kernel_size=(3, 3), stride=(1, 1))
                          (2): ReLU(inplace=True)
                        )
                        (relu): ReLU(inplace=True)
                      )
                      (1): ResBlock(
                        (conv): Sequential(
                          (0): ReplicationPad2d((1, 1, 1, 1))
                          (1): Conv2d(128, 128, kernel_size=(3, 3), stride=(1, 1))
                          (2): ReLU(inplace=True)
                        )
                        (relu): ReLU(inplace=True)
                      )
                      (2): ResBlock(
                        (conv): Sequential(
                          (0): ReplicationPad2d((1, 1, 1, 1))
                          (1): Conv2d(128, 128, kernel_size=(3, 3), stride=(1, 1))
                          (2): ReLU(inplace=True)
                        )
                        (relu): ReLU(inplace=True)
                      )
                    )
                    (_scale): Conv2d(128, 32, kernel_size=(1, 1), stride=(1, 1))
                    (_bias): Conv2d(128, 32, kernel_size=(1, 1), stride=(1, 1))
                  )
                )
                (3): BasicBlock(
                  (conv1): Sequential(
                    (0): ReplicationPad2d((1, 1, 1, 1))
                    (1): Conv2d(32, 32, kernel_size=(3, 3), stride=(1, 1), bias=False)
                  )
                  (bn1): GBufferNorm(
                    (_norm): GroupNorm(8, 32, eps=1e-05, affine=False)
                    (_conv): Sequential(
                      (0): ResBlock(
                        (conv): Sequential(
                          (0): ReplicationPad2d((1, 1, 1, 1))
                          (1): Conv2d(128, 128, kernel_size=(3, 3), stride=(1, 1))
                          (2): ReLU(inplace=True)
                        )
                        (relu): ReLU(inplace=True)
                      )
                      (1): ResBlock(
                        (conv): Sequential(
                          (0): ReplicationPad2d((1, 1, 1, 1))
                          (1): Conv2d(128, 128, kernel_size=(3, 3), stride=(1, 1))
                          (2): ReLU(inplace=True)
                        )
                        (relu): ReLU(inplace=True)
                      )
                      (2): ResBlock(
                        (conv): Sequential(
                          (0): ReplicationPad2d((1, 1, 1, 1))
                          (1): Conv2d(128, 128, kernel_size=(3, 3), stride=(1, 1))
                          (2): ReLU(inplace=True)
                        )
                        (relu): ReLU(inplace=True)
                      )
                    )
                    (_scale): Conv2d(128, 32, kernel_size=(1, 1), stride=(1, 1))
                    (_bias): Conv2d(128, 32, kernel_size=(1, 1), stride=(1, 1))
                  )
                  (relu): ReLU()
                  (conv2): Sequential(
                    (0): ReLU(inplace=True)
                    (1): Sequential(
                      (0): ReplicationPad2d((1, 1, 1, 1))
                      (1): Conv2d(32, 32, kernel_size=(3, 3), stride=(1, 1), bias=False)
                    )
                  )
                  (bn2): GBufferNorm(
                    (_norm): GroupNorm(8, 32, eps=1e-05, affine=False)
                    (_conv): Sequential(
                      (0): ResBlock(
                        (conv): Sequential(
                          (0): ReplicationPad2d((1, 1, 1, 1))
                          (1): Conv2d(128, 128, kernel_size=(3, 3), stride=(1, 1))
                          (2): ReLU(inplace=True)
                        )
                        (relu): ReLU(inplace=True)
                      )
                      (1): ResBlock(
                        (conv): Sequential(
                          (0): ReplicationPad2d((1, 1, 1, 1))
                          (1): Conv2d(128, 128, kernel_size=(3, 3), stride=(1, 1))
                          (2): ReLU(inplace=True)
                        )
                        (relu): ReLU(inplace=True)
                      )
                      (2): ResBlock(
                        (conv): Sequential(
                          (0): ReplicationPad2d((1, 1, 1, 1))
                          (1): Conv2d(128, 128, kernel_size=(3, 3), stride=(1, 1))
                          (2): ReLU(inplace=True)
                        )
                        (relu): ReLU(inplace=True)
                      )
                    )
                    (_scale): Conv2d(128, 32, kernel_size=(1, 1), stride=(1, 1))
                    (_bias): Conv2d(128, 32, kernel_size=(1, 1), stride=(1, 1))
                  )
                )
              )
            )
            (fuse_layers): ModuleList(
              (0): ModuleList(
                (0): None
                (1): Sequential(
                  (0): Conv2d(32, 16, kernel_size=(1, 1), stride=(1, 1), bias=False)
                  (1): GroupNorm(8, 16, eps=1e-05, affine=True)
                )
              )
              (1): ModuleList(
                (0): Sequential(
                  (0): Sequential(
                    (0): ReplicationPad2d((1, 1, 1, 1))
                    (1): Conv2d(16, 32, kernel_size=(3, 3), stride=(2, 2), bias=False)
                    (2): GroupNorm(8, 32, eps=1e-05, affine=True)
                  )
                )
                (1): None
              )
            )
            (relu): ReLU()
          )
        )
        (1): Sequential(
          (0): HighResolutionModule(
            (branches): ModuleList(
              (0): Sequential(
                (0): BasicBlock(
                  (conv1): Sequential(
                    (0): ReplicationPad2d((1, 1, 1, 1))
                    (1): Conv2d(16, 16, kernel_size=(3, 3), stride=(1, 1), bias=False)
                  )
                  (bn1): GBufferNorm(
                    (_norm): GroupNorm(8, 16, eps=1e-05, affine=False)
                    (_conv): Sequential(
                      (0): ResBlock(
                        (conv): Sequential(
                          (0): ReplicationPad2d((1, 1, 1, 1))
                          (1): Conv2d(128, 128, kernel_size=(3, 3), stride=(1, 1))
                          (2): ReLU(inplace=True)
                        )
                        (relu): ReLU(inplace=True)
                      )
                      (1): ResBlock(
                        (conv): Sequential(
                          (0): ReplicationPad2d((1, 1, 1, 1))
                          (1): Conv2d(128, 128, kernel_size=(3, 3), stride=(1, 1))
                          (2): ReLU(inplace=True)
                        )
                        (relu): ReLU(inplace=True)
                      )
                      (2): ResBlock(
                        (conv): Sequential(
                          (0): ReplicationPad2d((1, 1, 1, 1))
                          (1): Conv2d(128, 128, kernel_size=(3, 3), stride=(1, 1))
                          (2): ReLU(inplace=True)
                        )
                        (relu): ReLU(inplace=True)
                      )
                    )
                    (_scale): Conv2d(128, 16, kernel_size=(1, 1), stride=(1, 1))
                    (_bias): Conv2d(128, 16, kernel_size=(1, 1), stride=(1, 1))
                  )
                  (relu): ReLU()
                  (conv2): Sequential(
                    (0): ReLU(inplace=True)
                    (1): Sequential(
                      (0): ReplicationPad2d((1, 1, 1, 1))
                      (1): Conv2d(16, 16, kernel_size=(3, 3), stride=(1, 1), bias=False)
                    )
                  )
                  (bn2): GBufferNorm(
                    (_norm): GroupNorm(8, 16, eps=1e-05, affine=False)
                    (_conv): Sequential(
                      (0): ResBlock(
                        (conv): Sequential(
                          (0): ReplicationPad2d((1, 1, 1, 1))
                          (1): Conv2d(128, 128, kernel_size=(3, 3), stride=(1, 1))
                          (2): ReLU(inplace=True)
                        )
                        (relu): ReLU(inplace=True)
                      )
                      (1): ResBlock(
                        (conv): Sequential(
                          (0): ReplicationPad2d((1, 1, 1, 1))
                          (1): Conv2d(128, 128, kernel_size=(3, 3), stride=(1, 1))
                          (2): ReLU(inplace=True)
                        )
                        (relu): ReLU(inplace=True)
                      )
                      (2): ResBlock(
                        (conv): Sequential(
                          (0): ReplicationPad2d((1, 1, 1, 1))
                          (1): Conv2d(128, 128, kernel_size=(3, 3), stride=(1, 1))
                          (2): ReLU(inplace=True)
                        )
                        (relu): ReLU(inplace=True)
                      )
                    )
                    (_scale): Conv2d(128, 16, kernel_size=(1, 1), stride=(1, 1))
                    (_bias): Conv2d(128, 16, kernel_size=(1, 1), stride=(1, 1))
                  )
                )
                (1): BasicBlock(
                  (conv1): Sequential(
                    (0): ReplicationPad2d((1, 1, 1, 1))
                    (1): Conv2d(16, 16, kernel_size=(3, 3), stride=(1, 1), bias=False)
                  )
                  (bn1): GBufferNorm(
                    (_norm): GroupNorm(8, 16, eps=1e-05, affine=False)
                    (_conv): Sequential(
                      (0): ResBlock(
                        (conv): Sequential(
                          (0): ReplicationPad2d((1, 1, 1, 1))
                          (1): Conv2d(128, 128, kernel_size=(3, 3), stride=(1, 1))
                          (2): ReLU(inplace=True)
                        )
                        (relu): ReLU(inplace=True)
                      )
                      (1): ResBlock(
                        (conv): Sequential(
                          (0): ReplicationPad2d((1, 1, 1, 1))
                          (1): Conv2d(128, 128, kernel_size=(3, 3), stride=(1, 1))
                          (2): ReLU(inplace=True)
                        )
                        (relu): ReLU(inplace=True)
                      )
                      (2): ResBlock(
                        (conv): Sequential(
                          (0): ReplicationPad2d((1, 1, 1, 1))
                          (1): Conv2d(128, 128, kernel_size=(3, 3), stride=(1, 1))
                          (2): ReLU(inplace=True)
                        )
                        (relu): ReLU(inplace=True)
                      )
                    )
                    (_scale): Conv2d(128, 16, kernel_size=(1, 1), stride=(1, 1))
                    (_bias): Conv2d(128, 16, kernel_size=(1, 1), stride=(1, 1))
                  )
                  (relu): ReLU()
                  (conv2): Sequential(
                    (0): ReLU(inplace=True)
                    (1): Sequential(
                      (0): ReplicationPad2d((1, 1, 1, 1))
                      (1): Conv2d(16, 16, kernel_size=(3, 3), stride=(1, 1), bias=False)
                    )
                  )
                  (bn2): GBufferNorm(
                    (_norm): GroupNorm(8, 16, eps=1e-05, affine=False)
                    (_conv): Sequential(
                      (0): ResBlock(
                        (conv): Sequential(
                          (0): ReplicationPad2d((1, 1, 1, 1))
                          (1): Conv2d(128, 128, kernel_size=(3, 3), stride=(1, 1))
                          (2): ReLU(inplace=True)
                        )
                        (relu): ReLU(inplace=True)
                      )
                      (1): ResBlock(
                        (conv): Sequential(
                          (0): ReplicationPad2d((1, 1, 1, 1))
                          (1): Conv2d(128, 128, kernel_size=(3, 3), stride=(1, 1))
                          (2): ReLU(inplace=True)
                        )
                        (relu): ReLU(inplace=True)
                      )
                      (2): ResBlock(
                        (conv): Sequential(
                          (0): ReplicationPad2d((1, 1, 1, 1))
                          (1): Conv2d(128, 128, kernel_size=(3, 3), stride=(1, 1))
                          (2): ReLU(inplace=True)
                        )
                        (relu): ReLU(inplace=True)
                      )
                    )
                    (_scale): Conv2d(128, 16, kernel_size=(1, 1), stride=(1, 1))
                    (_bias): Conv2d(128, 16, kernel_size=(1, 1), stride=(1, 1))
                  )
                )
                (2): BasicBlock(
                  (conv1): Sequential(
                    (0): ReplicationPad2d((1, 1, 1, 1))
                    (1): Conv2d(16, 16, kernel_size=(3, 3), stride=(1, 1), bias=False)
                  )
                  (bn1): GBufferNorm(
                    (_norm): GroupNorm(8, 16, eps=1e-05, affine=False)
                    (_conv): Sequential(
                      (0): ResBlock(
                        (conv): Sequential(
                          (0): ReplicationPad2d((1, 1, 1, 1))
                          (1): Conv2d(128, 128, kernel_size=(3, 3), stride=(1, 1))
                          (2): ReLU(inplace=True)
                        )
                        (relu): ReLU(inplace=True)
                      )
                      (1): ResBlock(
                        (conv): Sequential(
                          (0): ReplicationPad2d((1, 1, 1, 1))
                          (1): Conv2d(128, 128, kernel_size=(3, 3), stride=(1, 1))
                          (2): ReLU(inplace=True)
                        )
                        (relu): ReLU(inplace=True)
                      )
                      (2): ResBlock(
                        (conv): Sequential(
                          (0): ReplicationPad2d((1, 1, 1, 1))
                          (1): Conv2d(128, 128, kernel_size=(3, 3), stride=(1, 1))
                          (2): ReLU(inplace=True)
                        )
                        (relu): ReLU(inplace=True)
                      )
                    )
                    (_scale): Conv2d(128, 16, kernel_size=(1, 1), stride=(1, 1))
                    (_bias): Conv2d(128, 16, kernel_size=(1, 1), stride=(1, 1))
                  )
                  (relu): ReLU()
                  (conv2): Sequential(
                    (0): ReLU(inplace=True)
                    (1): Sequential(
                      (0): ReplicationPad2d((1, 1, 1, 1))
                      (1): Conv2d(16, 16, kernel_size=(3, 3), stride=(1, 1), bias=False)
                    )
                  )
                  (bn2): GBufferNorm(
                    (_norm): GroupNorm(8, 16, eps=1e-05, affine=False)
                    (_conv): Sequential(
                      (0): ResBlock(
                        (conv): Sequential(
                          (0): ReplicationPad2d((1, 1, 1, 1))
                          (1): Conv2d(128, 128, kernel_size=(3, 3), stride=(1, 1))
                          (2): ReLU(inplace=True)
                        )
                        (relu): ReLU(inplace=True)
                      )
                      (1): ResBlock(
                        (conv): Sequential(
                          (0): ReplicationPad2d((1, 1, 1, 1))
                          (1): Conv2d(128, 128, kernel_size=(3, 3), stride=(1, 1))
                          (2): ReLU(inplace=True)
                        )
                        (relu): ReLU(inplace=True)
                      )
                      (2): ResBlock(
                        (conv): Sequential(
                          (0): ReplicationPad2d((1, 1, 1, 1))
                          (1): Conv2d(128, 128, kernel_size=(3, 3), stride=(1, 1))
                          (2): ReLU(inplace=True)
                        )
                        (relu): ReLU(inplace=True)
                      )
                    )
                    (_scale): Conv2d(128, 16, kernel_size=(1, 1), stride=(1, 1))
                    (_bias): Conv2d(128, 16, kernel_size=(1, 1), stride=(1, 1))
                  )
                )
                (3): BasicBlock(
                  (conv1): Sequential(
                    (0): ReplicationPad2d((1, 1, 1, 1))
                    (1): Conv2d(16, 16, kernel_size=(3, 3), stride=(1, 1), bias=False)
                  )
                  (bn1): GBufferNorm(
                    (_norm): GroupNorm(8, 16, eps=1e-05, affine=False)
                    (_conv): Sequential(
                      (0): ResBlock(
                        (conv): Sequential(
                          (0): ReplicationPad2d((1, 1, 1, 1))
                          (1): Conv2d(128, 128, kernel_size=(3, 3), stride=(1, 1))
                          (2): ReLU(inplace=True)
                        )
                        (relu): ReLU(inplace=True)
                      )
                      (1): ResBlock(
                        (conv): Sequential(
                          (0): ReplicationPad2d((1, 1, 1, 1))
                          (1): Conv2d(128, 128, kernel_size=(3, 3), stride=(1, 1))
                          (2): ReLU(inplace=True)
                        )
                        (relu): ReLU(inplace=True)
                      )
                      (2): ResBlock(
                        (conv): Sequential(
                          (0): ReplicationPad2d((1, 1, 1, 1))
                          (1): Conv2d(128, 128, kernel_size=(3, 3), stride=(1, 1))
                          (2): ReLU(inplace=True)
                        )
                        (relu): ReLU(inplace=True)
                      )
                    )
                    (_scale): Conv2d(128, 16, kernel_size=(1, 1), stride=(1, 1))
                    (_bias): Conv2d(128, 16, kernel_size=(1, 1), stride=(1, 1))
                  )
                  (relu): ReLU()
                  (conv2): Sequential(
                    (0): ReLU(inplace=True)
                    (1): Sequential(
                      (0): ReplicationPad2d((1, 1, 1, 1))
                      (1): Conv2d(16, 16, kernel_size=(3, 3), stride=(1, 1), bias=False)
                    )
                  )
                  (bn2): GBufferNorm(
                    (_norm): GroupNorm(8, 16, eps=1e-05, affine=False)
                    (_conv): Sequential(
                      (0): ResBlock(
                        (conv): Sequential(
                          (0): ReplicationPad2d((1, 1, 1, 1))
                          (1): Conv2d(128, 128, kernel_size=(3, 3), stride=(1, 1))
                          (2): ReLU(inplace=True)
                        )
                        (relu): ReLU(inplace=True)
                      )
                      (1): ResBlock(
                        (conv): Sequential(
                          (0): ReplicationPad2d((1, 1, 1, 1))
                          (1): Conv2d(128, 128, kernel_size=(3, 3), stride=(1, 1))
                          (2): ReLU(inplace=True)
                        )
                        (relu): ReLU(inplace=True)
                      )
                      (2): ResBlock(
                        (conv): Sequential(
                          (0): ReplicationPad2d((1, 1, 1, 1))
                          (1): Conv2d(128, 128, kernel_size=(3, 3), stride=(1, 1))
                          (2): ReLU(inplace=True)
                        )
                        (relu): ReLU(inplace=True)
                      )
                    )
                    (_scale): Conv2d(128, 16, kernel_size=(1, 1), stride=(1, 1))
                    (_bias): Conv2d(128, 16, kernel_size=(1, 1), stride=(1, 1))
                  )
                )
              )
              (1): Sequential(
                (0): BasicBlock(
                  (conv1): Sequential(
                    (0): ReplicationPad2d((1, 1, 1, 1))
                    (1): Conv2d(32, 32, kernel_size=(3, 3), stride=(1, 1), bias=False)
                  )
                  (bn1): GBufferNorm(
                    (_norm): GroupNorm(8, 32, eps=1e-05, affine=False)
                    (_conv): Sequential(
                      (0): ResBlock(
                        (conv): Sequential(
                          (0): ReplicationPad2d((1, 1, 1, 1))
                          (1): Conv2d(128, 128, kernel_size=(3, 3), stride=(1, 1))
                          (2): ReLU(inplace=True)
                        )
                        (relu): ReLU(inplace=True)
                      )
                      (1): ResBlock(
                        (conv): Sequential(
                          (0): ReplicationPad2d((1, 1, 1, 1))
                          (1): Conv2d(128, 128, kernel_size=(3, 3), stride=(1, 1))
                          (2): ReLU(inplace=True)
                        )
                        (relu): ReLU(inplace=True)
                      )
                      (2): ResBlock(
                        (conv): Sequential(
                          (0): ReplicationPad2d((1, 1, 1, 1))
                          (1): Conv2d(128, 128, kernel_size=(3, 3), stride=(1, 1))
                          (2): ReLU(inplace=True)
                        )
                        (relu): ReLU(inplace=True)
                      )
                    )
                    (_scale): Conv2d(128, 32, kernel_size=(1, 1), stride=(1, 1))
                    (_bias): Conv2d(128, 32, kernel_size=(1, 1), stride=(1, 1))
                  )
                  (relu): ReLU()
                  (conv2): Sequential(
                    (0): ReLU(inplace=True)
                    (1): Sequential(
                      (0): ReplicationPad2d((1, 1, 1, 1))
                      (1): Conv2d(32, 32, kernel_size=(3, 3), stride=(1, 1), bias=False)
                    )
                  )
                  (bn2): GBufferNorm(
                    (_norm): GroupNorm(8, 32, eps=1e-05, affine=False)
                    (_conv): Sequential(
                      (0): ResBlock(
                        (conv): Sequential(
                          (0): ReplicationPad2d((1, 1, 1, 1))
                          (1): Conv2d(128, 128, kernel_size=(3, 3), stride=(1, 1))
                          (2): ReLU(inplace=True)
                        )
                        (relu): ReLU(inplace=True)
                      )
                      (1): ResBlock(
                        (conv): Sequential(
                          (0): ReplicationPad2d((1, 1, 1, 1))
                          (1): Conv2d(128, 128, kernel_size=(3, 3), stride=(1, 1))
                          (2): ReLU(inplace=True)
                        )
                        (relu): ReLU(inplace=True)
                      )
                      (2): ResBlock(
                        (conv): Sequential(
                          (0): ReplicationPad2d((1, 1, 1, 1))
                          (1): Conv2d(128, 128, kernel_size=(3, 3), stride=(1, 1))
                          (2): ReLU(inplace=True)
                        )
                        (relu): ReLU(inplace=True)
                      )
                    )
                    (_scale): Conv2d(128, 32, kernel_size=(1, 1), stride=(1, 1))
                    (_bias): Conv2d(128, 32, kernel_size=(1, 1), stride=(1, 1))
                  )
                )
                (1): BasicBlock(
                  (conv1): Sequential(
                    (0): ReplicationPad2d((1, 1, 1, 1))
                    (1): Conv2d(32, 32, kernel_size=(3, 3), stride=(1, 1), bias=False)
                  )
                  (bn1): GBufferNorm(
                    (_norm): GroupNorm(8, 32, eps=1e-05, affine=False)
                    (_conv): Sequential(
                      (0): ResBlock(
                        (conv): Sequential(
                          (0): ReplicationPad2d((1, 1, 1, 1))
                          (1): Conv2d(128, 128, kernel_size=(3, 3), stride=(1, 1))
                          (2): ReLU(inplace=True)
                        )
                        (relu): ReLU(inplace=True)
                      )
                      (1): ResBlock(
                        (conv): Sequential(
                          (0): ReplicationPad2d((1, 1, 1, 1))
                          (1): Conv2d(128, 128, kernel_size=(3, 3), stride=(1, 1))
                          (2): ReLU(inplace=True)
                        )
                        (relu): ReLU(inplace=True)
                      )
                      (2): ResBlock(
                        (conv): Sequential(
                          (0): ReplicationPad2d((1, 1, 1, 1))
                          (1): Conv2d(128, 128, kernel_size=(3, 3), stride=(1, 1))
                          (2): ReLU(inplace=True)
                        )
                        (relu): ReLU(inplace=True)
                      )
                    )
                    (_scale): Conv2d(128, 32, kernel_size=(1, 1), stride=(1, 1))
                    (_bias): Conv2d(128, 32, kernel_size=(1, 1), stride=(1, 1))
                  )
                  (relu): ReLU()
                  (conv2): Sequential(
                    (0): ReLU(inplace=True)
                    (1): Sequential(
                      (0): ReplicationPad2d((1, 1, 1, 1))
                      (1): Conv2d(32, 32, kernel_size=(3, 3), stride=(1, 1), bias=False)
                    )
                  )
                  (bn2): GBufferNorm(
                    (_norm): GroupNorm(8, 32, eps=1e-05, affine=False)
                    (_conv): Sequential(
                      (0): ResBlock(
                        (conv): Sequential(
                          (0): ReplicationPad2d((1, 1, 1, 1))
                          (1): Conv2d(128, 128, kernel_size=(3, 3), stride=(1, 1))
                          (2): ReLU(inplace=True)
                        )
                        (relu): ReLU(inplace=True)
                      )
                      (1): ResBlock(
                        (conv): Sequential(
                          (0): ReplicationPad2d((1, 1, 1, 1))
                          (1): Conv2d(128, 128, kernel_size=(3, 3), stride=(1, 1))
                          (2): ReLU(inplace=True)
                        )
                        (relu): ReLU(inplace=True)
                      )
                      (2): ResBlock(
                        (conv): Sequential(
                          (0): ReplicationPad2d((1, 1, 1, 1))
                          (1): Conv2d(128, 128, kernel_size=(3, 3), stride=(1, 1))
                          (2): ReLU(inplace=True)
                        )
                        (relu): ReLU(inplace=True)
                      )
                    )
                    (_scale): Conv2d(128, 32, kernel_size=(1, 1), stride=(1, 1))
                    (_bias): Conv2d(128, 32, kernel_size=(1, 1), stride=(1, 1))
                  )
                )
                (2): BasicBlock(
                  (conv1): Sequential(
                    (0): ReplicationPad2d((1, 1, 1, 1))
                    (1): Conv2d(32, 32, kernel_size=(3, 3), stride=(1, 1), bias=False)
                  )
                  (bn1): GBufferNorm(
                    (_norm): GroupNorm(8, 32, eps=1e-05, affine=False)
                    (_conv): Sequential(
                      (0): ResBlock(
                        (conv): Sequential(
                          (0): ReplicationPad2d((1, 1, 1, 1))
                          (1): Conv2d(128, 128, kernel_size=(3, 3), stride=(1, 1))
                          (2): ReLU(inplace=True)
                        )
                        (relu): ReLU(inplace=True)
                      )
                      (1): ResBlock(
                        (conv): Sequential(
                          (0): ReplicationPad2d((1, 1, 1, 1))
                          (1): Conv2d(128, 128, kernel_size=(3, 3), stride=(1, 1))
                          (2): ReLU(inplace=True)
                        )
                        (relu): ReLU(inplace=True)
                      )
                      (2): ResBlock(
                        (conv): Sequential(
                          (0): ReplicationPad2d((1, 1, 1, 1))
                          (1): Conv2d(128, 128, kernel_size=(3, 3), stride=(1, 1))
                          (2): ReLU(inplace=True)
                        )
                        (relu): ReLU(inplace=True)
                      )
                    )
                    (_scale): Conv2d(128, 32, kernel_size=(1, 1), stride=(1, 1))
                    (_bias): Conv2d(128, 32, kernel_size=(1, 1), stride=(1, 1))
                  )
                  (relu): ReLU()
                  (conv2): Sequential(
                    (0): ReLU(inplace=True)
                    (1): Sequential(
                      (0): ReplicationPad2d((1, 1, 1, 1))
                      (1): Conv2d(32, 32, kernel_size=(3, 3), stride=(1, 1), bias=False)
                    )
                  )
                  (bn2): GBufferNorm(
                    (_norm): GroupNorm(8, 32, eps=1e-05, affine=False)
                    (_conv): Sequential(
                      (0): ResBlock(
                        (conv): Sequential(
                          (0): ReplicationPad2d((1, 1, 1, 1))
                          (1): Conv2d(128, 128, kernel_size=(3, 3), stride=(1, 1))
                          (2): ReLU(inplace=True)
                        )
                        (relu): ReLU(inplace=True)
                      )
                      (1): ResBlock(
                        (conv): Sequential(
                          (0): ReplicationPad2d((1, 1, 1, 1))
                          (1): Conv2d(128, 128, kernel_size=(3, 3), stride=(1, 1))
                          (2): ReLU(inplace=True)
                        )
                        (relu): ReLU(inplace=True)
                      )
                      (2): ResBlock(
                        (conv): Sequential(
                          (0): ReplicationPad2d((1, 1, 1, 1))
                          (1): Conv2d(128, 128, kernel_size=(3, 3), stride=(1, 1))
                          (2): ReLU(inplace=True)
                        )
                        (relu): ReLU(inplace=True)
                      )
                    )
                    (_scale): Conv2d(128, 32, kernel_size=(1, 1), stride=(1, 1))
                    (_bias): Conv2d(128, 32, kernel_size=(1, 1), stride=(1, 1))
                  )
                )
                (3): BasicBlock(
                  (conv1): Sequential(
                    (0): ReplicationPad2d((1, 1, 1, 1))
                    (1): Conv2d(32, 32, kernel_size=(3, 3), stride=(1, 1), bias=False)
                  )
                  (bn1): GBufferNorm(
                    (_norm): GroupNorm(8, 32, eps=1e-05, affine=False)
                    (_conv): Sequential(
                      (0): ResBlock(
                        (conv): Sequential(
                          (0): ReplicationPad2d((1, 1, 1, 1))
                          (1): Conv2d(128, 128, kernel_size=(3, 3), stride=(1, 1))
                          (2): ReLU(inplace=True)
                        )
                        (relu): ReLU(inplace=True)
                      )
                      (1): ResBlock(
                        (conv): Sequential(
                          (0): ReplicationPad2d((1, 1, 1, 1))
                          (1): Conv2d(128, 128, kernel_size=(3, 3), stride=(1, 1))
                          (2): ReLU(inplace=True)
                        )
                        (relu): ReLU(inplace=True)
                      )
                      (2): ResBlock(
                        (conv): Sequential(
                          (0): ReplicationPad2d((1, 1, 1, 1))
                          (1): Conv2d(128, 128, kernel_size=(3, 3), stride=(1, 1))
                          (2): ReLU(inplace=True)
                        )
                        (relu): ReLU(inplace=True)
                      )
                    )
                    (_scale): Conv2d(128, 32, kernel_size=(1, 1), stride=(1, 1))
                    (_bias): Conv2d(128, 32, kernel_size=(1, 1), stride=(1, 1))
                  )
                  (relu): ReLU()
                  (conv2): Sequential(
                    (0): ReLU(inplace=True)
                    (1): Sequential(
                      (0): ReplicationPad2d((1, 1, 1, 1))
                      (1): Conv2d(32, 32, kernel_size=(3, 3), stride=(1, 1), bias=False)
                    )
                  )
                  (bn2): GBufferNorm(
                    (_norm): GroupNorm(8, 32, eps=1e-05, affine=False)
                    (_conv): Sequential(
                      (0): ResBlock(
                        (conv): Sequential(
                          (0): ReplicationPad2d((1, 1, 1, 1))
                          (1): Conv2d(128, 128, kernel_size=(3, 3), stride=(1, 1))
                          (2): ReLU(inplace=True)
                        )
                        (relu): ReLU(inplace=True)
                      )
                      (1): ResBlock(
                        (conv): Sequential(
                          (0): ReplicationPad2d((1, 1, 1, 1))
                          (1): Conv2d(128, 128, kernel_size=(3, 3), stride=(1, 1))
                          (2): ReLU(inplace=True)
                        )
                        (relu): ReLU(inplace=True)
                      )
                      (2): ResBlock(
                        (conv): Sequential(
                          (0): ReplicationPad2d((1, 1, 1, 1))
                          (1): Conv2d(128, 128, kernel_size=(3, 3), stride=(1, 1))
                          (2): ReLU(inplace=True)
                        )
                        (relu): ReLU(inplace=True)
                      )
                    )
                    (_scale): Conv2d(128, 32, kernel_size=(1, 1), stride=(1, 1))
                    (_bias): Conv2d(128, 32, kernel_size=(1, 1), stride=(1, 1))
                  )
                )
              )
              (2): Sequential(
                (0): BasicBlock(
                  (conv1): Sequential(
                    (0): ReplicationPad2d((1, 1, 1, 1))
                    (1): Conv2d(64, 64, kernel_size=(3, 3), stride=(1, 1), bias=False)
                  )
                  (bn1): GBufferNorm(
                    (_norm): GroupNorm(8, 64, eps=1e-05, affine=False)
                    (_conv): Sequential(
                      (0): ResBlock(
                        (conv): Sequential(
                          (0): ReplicationPad2d((1, 1, 1, 1))
                          (1): Conv2d(128, 128, kernel_size=(3, 3), stride=(1, 1))
                          (2): ReLU(inplace=True)
                        )
                        (relu): ReLU(inplace=True)
                      )
                      (1): ResBlock(
                        (conv): Sequential(
                          (0): ReplicationPad2d((1, 1, 1, 1))
                          (1): Conv2d(128, 128, kernel_size=(3, 3), stride=(1, 1))
                          (2): ReLU(inplace=True)
                        )
                        (relu): ReLU(inplace=True)
                      )
                      (2): ResBlock(
                        (conv): Sequential(
                          (0): ReplicationPad2d((1, 1, 1, 1))
                          (1): Conv2d(128, 128, kernel_size=(3, 3), stride=(1, 1))
                          (2): ReLU(inplace=True)
                        )
                        (relu): ReLU(inplace=True)
                      )
                    )
                    (_scale): Conv2d(128, 64, kernel_size=(1, 1), stride=(1, 1))
                    (_bias): Conv2d(128, 64, kernel_size=(1, 1), stride=(1, 1))
                  )
                  (relu): ReLU()
                  (conv2): Sequential(
                    (0): ReLU(inplace=True)
                    (1): Sequential(
                      (0): ReplicationPad2d((1, 1, 1, 1))
                      (1): Conv2d(64, 64, kernel_size=(3, 3), stride=(1, 1), bias=False)
                    )
                  )
                  (bn2): GBufferNorm(
                    (_norm): GroupNorm(8, 64, eps=1e-05, affine=False)
                    (_conv): Sequential(
                      (0): ResBlock(
                        (conv): Sequential(
                          (0): ReplicationPad2d((1, 1, 1, 1))
                          (1): Conv2d(128, 128, kernel_size=(3, 3), stride=(1, 1))
                          (2): ReLU(inplace=True)
                        )
                        (relu): ReLU(inplace=True)
                      )
                      (1): ResBlock(
                        (conv): Sequential(
                          (0): ReplicationPad2d((1, 1, 1, 1))
                          (1): Conv2d(128, 128, kernel_size=(3, 3), stride=(1, 1))
                          (2): ReLU(inplace=True)
                        )
                        (relu): ReLU(inplace=True)
                      )
                      (2): ResBlock(
                        (conv): Sequential(
                          (0): ReplicationPad2d((1, 1, 1, 1))
                          (1): Conv2d(128, 128, kernel_size=(3, 3), stride=(1, 1))
                          (2): ReLU(inplace=True)
                        )
                        (relu): ReLU(inplace=True)
                      )
                    )
                    (_scale): Conv2d(128, 64, kernel_size=(1, 1), stride=(1, 1))
                    (_bias): Conv2d(128, 64, kernel_size=(1, 1), stride=(1, 1))
                  )
                )
                (1): BasicBlock(
                  (conv1): Sequential(
                    (0): ReplicationPad2d((1, 1, 1, 1))
                    (1): Conv2d(64, 64, kernel_size=(3, 3), stride=(1, 1), bias=False)
                  )
                  (bn1): GBufferNorm(
                    (_norm): GroupNorm(8, 64, eps=1e-05, affine=False)
                    (_conv): Sequential(
                      (0): ResBlock(
                        (conv): Sequential(
                          (0): ReplicationPad2d((1, 1, 1, 1))
                          (1): Conv2d(128, 128, kernel_size=(3, 3), stride=(1, 1))
                          (2): ReLU(inplace=True)
                        )
                        (relu): ReLU(inplace=True)
                      )
                      (1): ResBlock(
                        (conv): Sequential(
                          (0): ReplicationPad2d((1, 1, 1, 1))
                          (1): Conv2d(128, 128, kernel_size=(3, 3), stride=(1, 1))
                          (2): ReLU(inplace=True)
                        )
                        (relu): ReLU(inplace=True)
                      )
                      (2): ResBlock(
                        (conv): Sequential(
                          (0): ReplicationPad2d((1, 1, 1, 1))
                          (1): Conv2d(128, 128, kernel_size=(3, 3), stride=(1, 1))
                          (2): ReLU(inplace=True)
                        )
                        (relu): ReLU(inplace=True)
                      )
                    )
                    (_scale): Conv2d(128, 64, kernel_size=(1, 1), stride=(1, 1))
                    (_bias): Conv2d(128, 64, kernel_size=(1, 1), stride=(1, 1))
                  )
                  (relu): ReLU()
                  (conv2): Sequential(
                    (0): ReLU(inplace=True)
                    (1): Sequential(
                      (0): ReplicationPad2d((1, 1, 1, 1))
                      (1): Conv2d(64, 64, kernel_size=(3, 3), stride=(1, 1), bias=False)
                    )
                  )
                  (bn2): GBufferNorm(
                    (_norm): GroupNorm(8, 64, eps=1e-05, affine=False)
                    (_conv): Sequential(
                      (0): ResBlock(
                        (conv): Sequential(
                          (0): ReplicationPad2d((1, 1, 1, 1))
                          (1): Conv2d(128, 128, kernel_size=(3, 3), stride=(1, 1))
                          (2): ReLU(inplace=True)
                        )
                        (relu): ReLU(inplace=True)
                      )
                      (1): ResBlock(
                        (conv): Sequential(
                          (0): ReplicationPad2d((1, 1, 1, 1))
                          (1): Conv2d(128, 128, kernel_size=(3, 3), stride=(1, 1))
                          (2): ReLU(inplace=True)
                        )
                        (relu): ReLU(inplace=True)
                      )
                      (2): ResBlock(
                        (conv): Sequential(
                          (0): ReplicationPad2d((1, 1, 1, 1))
                          (1): Conv2d(128, 128, kernel_size=(3, 3), stride=(1, 1))
                          (2): ReLU(inplace=True)
                        )
                        (relu): ReLU(inplace=True)
                      )
                    )
                    (_scale): Conv2d(128, 64, kernel_size=(1, 1), stride=(1, 1))
                    (_bias): Conv2d(128, 64, kernel_size=(1, 1), stride=(1, 1))
                  )
                )
                (2): BasicBlock(
                  (conv1): Sequential(
                    (0): ReplicationPad2d((1, 1, 1, 1))
                    (1): Conv2d(64, 64, kernel_size=(3, 3), stride=(1, 1), bias=False)
                  )
                  (bn1): GBufferNorm(
                    (_norm): GroupNorm(8, 64, eps=1e-05, affine=False)
                    (_conv): Sequential(
                      (0): ResBlock(
                        (conv): Sequential(
                          (0): ReplicationPad2d((1, 1, 1, 1))
                          (1): Conv2d(128, 128, kernel_size=(3, 3), stride=(1, 1))
                          (2): ReLU(inplace=True)
                        )
                        (relu): ReLU(inplace=True)
                      )
                      (1): ResBlock(
                        (conv): Sequential(
                          (0): ReplicationPad2d((1, 1, 1, 1))
                          (1): Conv2d(128, 128, kernel_size=(3, 3), stride=(1, 1))
                          (2): ReLU(inplace=True)
                        )
                        (relu): ReLU(inplace=True)
                      )
                      (2): ResBlock(
                        (conv): Sequential(
                          (0): ReplicationPad2d((1, 1, 1, 1))
                          (1): Conv2d(128, 128, kernel_size=(3, 3), stride=(1, 1))
                          (2): ReLU(inplace=True)
                        )
                        (relu): ReLU(inplace=True)
                      )
                    )
                    (_scale): Conv2d(128, 64, kernel_size=(1, 1), stride=(1, 1))
                    (_bias): Conv2d(128, 64, kernel_size=(1, 1), stride=(1, 1))
                  )
                  (relu): ReLU()
                  (conv2): Sequential(
                    (0): ReLU(inplace=True)
                    (1): Sequential(
                      (0): ReplicationPad2d((1, 1, 1, 1))
                      (1): Conv2d(64, 64, kernel_size=(3, 3), stride=(1, 1), bias=False)
                    )
                  )
                  (bn2): GBufferNorm(
                    (_norm): GroupNorm(8, 64, eps=1e-05, affine=False)
                    (_conv): Sequential(
                      (0): ResBlock(
                        (conv): Sequential(
                          (0): ReplicationPad2d((1, 1, 1, 1))
                          (1): Conv2d(128, 128, kernel_size=(3, 3), stride=(1, 1))
                          (2): ReLU(inplace=True)
                        )
                        (relu): ReLU(inplace=True)
                      )
                      (1): ResBlock(
                        (conv): Sequential(
                          (0): ReplicationPad2d((1, 1, 1, 1))
                          (1): Conv2d(128, 128, kernel_size=(3, 3), stride=(1, 1))
                          (2): ReLU(inplace=True)
                        )
                        (relu): ReLU(inplace=True)
                      )
                      (2): ResBlock(
                        (conv): Sequential(
                          (0): ReplicationPad2d((1, 1, 1, 1))
                          (1): Conv2d(128, 128, kernel_size=(3, 3), stride=(1, 1))
                          (2): ReLU(inplace=True)
                        )
                        (relu): ReLU(inplace=True)
                      )
                    )
                    (_scale): Conv2d(128, 64, kernel_size=(1, 1), stride=(1, 1))
                    (_bias): Conv2d(128, 64, kernel_size=(1, 1), stride=(1, 1))
                  )
                )
                (3): BasicBlock(
                  (conv1): Sequential(
                    (0): ReplicationPad2d((1, 1, 1, 1))
                    (1): Conv2d(64, 64, kernel_size=(3, 3), stride=(1, 1), bias=False)
                  )
                  (bn1): GBufferNorm(
                    (_norm): GroupNorm(8, 64, eps=1e-05, affine=False)
                    (_conv): Sequential(
                      (0): ResBlock(
                        (conv): Sequential(
                          (0): ReplicationPad2d((1, 1, 1, 1))
                          (1): Conv2d(128, 128, kernel_size=(3, 3), stride=(1, 1))
                          (2): ReLU(inplace=True)
                        )
                        (relu): ReLU(inplace=True)
                      )
                      (1): ResBlock(
                        (conv): Sequential(
                          (0): ReplicationPad2d((1, 1, 1, 1))
                          (1): Conv2d(128, 128, kernel_size=(3, 3), stride=(1, 1))
                          (2): ReLU(inplace=True)
                        )
                        (relu): ReLU(inplace=True)
                      )
                      (2): ResBlock(
                        (conv): Sequential(
                          (0): ReplicationPad2d((1, 1, 1, 1))
                          (1): Conv2d(128, 128, kernel_size=(3, 3), stride=(1, 1))
                          (2): ReLU(inplace=True)
                        )
                        (relu): ReLU(inplace=True)
                      )
                    )
                    (_scale): Conv2d(128, 64, kernel_size=(1, 1), stride=(1, 1))
                    (_bias): Conv2d(128, 64, kernel_size=(1, 1), stride=(1, 1))
                  )
                  (relu): ReLU()
                  (conv2): Sequential(
                    (0): ReLU(inplace=True)
                    (1): Sequential(
                      (0): ReplicationPad2d((1, 1, 1, 1))
                      (1): Conv2d(64, 64, kernel_size=(3, 3), stride=(1, 1), bias=False)
                    )
                  )
                  (bn2): GBufferNorm(
                    (_norm): GroupNorm(8, 64, eps=1e-05, affine=False)
                    (_conv): Sequential(
                      (0): ResBlock(
                        (conv): Sequential(
                          (0): ReplicationPad2d((1, 1, 1, 1))
                          (1): Conv2d(128, 128, kernel_size=(3, 3), stride=(1, 1))
                          (2): ReLU(inplace=True)
                        )
                        (relu): ReLU(inplace=True)
                      )
                      (1): ResBlock(
                        (conv): Sequential(
                          (0): ReplicationPad2d((1, 1, 1, 1))
                          (1): Conv2d(128, 128, kernel_size=(3, 3), stride=(1, 1))
                          (2): ReLU(inplace=True)
                        )
                        (relu): ReLU(inplace=True)
                      )
                      (2): ResBlock(
                        (conv): Sequential(
                          (0): ReplicationPad2d((1, 1, 1, 1))
                          (1): Conv2d(128, 128, kernel_size=(3, 3), stride=(1, 1))
                          (2): ReLU(inplace=True)
                        )
                        (relu): ReLU(inplace=True)
                      )
                    )
                    (_scale): Conv2d(128, 64, kernel_size=(1, 1), stride=(1, 1))
                    (_bias): Conv2d(128, 64, kernel_size=(1, 1), stride=(1, 1))
                  )
                )
              )
            )
            (fuse_layers): ModuleList(
              (0): ModuleList(
                (0): None
                (1): Sequential(
                  (0): Conv2d(32, 16, kernel_size=(1, 1), stride=(1, 1), bias=False)
                  (1): GroupNorm(8, 16, eps=1e-05, affine=True)
                )
                (2): Sequential(
                  (0): Conv2d(64, 16, kernel_size=(1, 1), stride=(1, 1), bias=False)
                  (1): GroupNorm(8, 16, eps=1e-05, affine=True)
                )
              )
              (1): ModuleList(
                (0): Sequential(
                  (0): Sequential(
                    (0): ReplicationPad2d((1, 1, 1, 1))
                    (1): Conv2d(16, 32, kernel_size=(3, 3), stride=(2, 2), bias=False)
                    (2): GroupNorm(8, 32, eps=1e-05, affine=True)
                  )
                )
                (1): None
                (2): Sequential(
                  (0): Conv2d(64, 32, kernel_size=(1, 1), stride=(1, 1), bias=False)
                  (1): GroupNorm(8, 32, eps=1e-05, affine=True)
                )
              )
              (2): ModuleList(
                (0): Sequential(
                  (0): Sequential(
                    (0): ReplicationPad2d((1, 1, 1, 1))
                    (1): Conv2d(16, 16, kernel_size=(3, 3), stride=(2, 2), bias=False)
                    (2): GroupNorm(8, 16, eps=1e-05, affine=True)
                    (3): ReLU()
                  )
                  (1): Sequential(
                    (0): ReplicationPad2d((1, 1, 1, 1))
                    (1): Conv2d(16, 64, kernel_size=(3, 3), stride=(2, 2), bias=False)
                    (2): GroupNorm(8, 64, eps=1e-05, affine=True)
                  )
                )
                (1): Sequential(
                  (0): Sequential(
                    (0): ReplicationPad2d((1, 1, 1, 1))
                    (1): Conv2d(32, 64, kernel_size=(3, 3), stride=(2, 2), bias=False)
                    (2): GroupNorm(8, 64, eps=1e-05, affine=True)
                  )
                )
                (2): None
              )
            )
            (relu): ReLU()
          )
        )
        (2): Sequential(
          (0): HighResolutionModule(
            (branches): ModuleList(
              (0): Sequential(
                (0): BasicBlock(
                  (conv1): Sequential(
                    (0): ReplicationPad2d((1, 1, 1, 1))
                    (1): Conv2d(16, 16, kernel_size=(3, 3), stride=(1, 1), bias=False)
                  )
                  (bn1): GBufferNorm(
                    (_norm): GroupNorm(8, 16, eps=1e-05, affine=False)
                    (_conv): Sequential(
                      (0): ResBlock(
                        (conv): Sequential(
                          (0): ReplicationPad2d((1, 1, 1, 1))
                          (1): Conv2d(128, 128, kernel_size=(3, 3), stride=(1, 1))
                          (2): ReLU(inplace=True)
                        )
                        (relu): ReLU(inplace=True)
                      )
                      (1): ResBlock(
                        (conv): Sequential(
                          (0): ReplicationPad2d((1, 1, 1, 1))
                          (1): Conv2d(128, 128, kernel_size=(3, 3), stride=(1, 1))
                          (2): ReLU(inplace=True)
                        )
                        (relu): ReLU(inplace=True)
                      )
                      (2): ResBlock(
                        (conv): Sequential(
                          (0): ReplicationPad2d((1, 1, 1, 1))
                          (1): Conv2d(128, 128, kernel_size=(3, 3), stride=(1, 1))
                          (2): ReLU(inplace=True)
                        )
                        (relu): ReLU(inplace=True)
                      )
                    )
                    (_scale): Conv2d(128, 16, kernel_size=(1, 1), stride=(1, 1))
                    (_bias): Conv2d(128, 16, kernel_size=(1, 1), stride=(1, 1))
                  )
                  (relu): ReLU()
                  (conv2): Sequential(
                    (0): ReLU(inplace=True)
…
                        )
                        (relu): ReLU(inplace=True)
                      )
                      (1): ResBlock(
                        (conv): Sequential(
                          (0): ReplicationPad2d((1, 1, 1, 1))
                          (1): Conv2d(128, 128, kernel_size=(3, 3), stride=(1, 1))
                          (2): ReLU(inplace=True)
                        )
                        (relu): ReLU(inplace=True)
                      )
                      (2): ResBlock(
                        (conv): Sequential(
                          (0): ReplicationPad2d((1, 1, 1, 1))
                          (1): Conv2d(128, 128, kernel_size=(3, 3), stride=(1, 1))
                          (2): ReLU(inplace=True)
                        )
                        (relu): ReLU(inplace=True)
                      )
                    )
                    (_scale): Conv2d(128, 16, kernel_size=(1, 1), stride=(1, 1))
                    (_bias): Conv2d(128, 16, kernel_size=(1, 1), stride=(1, 1))
                  )
                )
              )
              (1): Sequential(
                (0): BasicBlock(
                  (conv1): Sequential(
                    (0): ReplicationPad2d((1, 1, 1, 1))
                    (1): Conv2d(32, 32, kernel_size=(3, 3), stride=(1, 1), bias=False)
                  )
                  (bn1): GBufferNorm(
                    (_norm): GroupNorm(8, 32, eps=1e-05, affine=False)
                    (_conv): Sequential(
                      (0): ResBlock(
                        (conv): Sequential(
                          (0): ReplicationPad2d((1, 1, 1, 1))
                          (1): Conv2d(128, 128, kernel_size=(3, 3), stride=(1, 1))
                          (2): ReLU(inplace=True)
                        )
                        (relu): ReLU(inplace=True)
                      )
                      (1): ResBlock(
                        (conv): Sequential(
                          (0): ReplicationPad2d((1, 1, 1, 1))
                          (1): Conv2d(128, 128, kernel_size=(3, 3), stride=(1, 1))
                          (2): ReLU(inplace=True)
                        )
                        (relu): ReLU(inplace=True)
                      )
                      (2): ResBlock(
                        (conv): Sequential(
                          (0): ReplicationPad2d((1, 1, 1, 1))
                          (1): Conv2d(128, 128, kernel_size=(3, 3), stride=(1, 1))
                          (2): ReLU(inplace=True)
                        )
                        (relu): ReLU(inplace=True)
                      )
                    )
                    (_scale): Conv2d(128, 32, kernel_size=(1, 1), stride=(1, 1))
                    (_bias): Conv2d(128, 32, kernel_size=(1, 1), stride=(1, 1))
                  )
                  (relu): ReLU()
                  (conv2): Sequential(
                    (0): ReLU(inplace=True)
                    (1): Sequential(
                      (0): ReplicationPad2d((1, 1, 1, 1))
                      (1): Conv2d(32, 32, kernel_size=(3, 3), stride=(1, 1), bias=False)
                    )
                  )
                  (bn2): GBufferNorm(
                    (_norm): GroupNorm(8, 32, eps=1e-05, affine=False)
                    (_conv): Sequential(
                      (0): ResBlock(
                        (conv): Sequential(
                          (0): ReplicationPad2d((1, 1, 1, 1))
                          (1): Conv2d(128, 128, kernel_size=(3, 3), stride=(1, 1))
                          (2): ReLU(inplace=True)
                        )
                        (relu): ReLU(inplace=True)
                      )
                      (1): ResBlock(
                        (conv): Sequential(
                          (0): ReplicationPad2d((1, 1, 1, 1))
                          (1): Conv2d(128, 128, kernel_size=(3, 3), stride=(1, 1))
                          (2): ReLU(inplace=True)
                        )
                        (relu): ReLU(inplace=True)
                      )
                      (2): ResBlock(
                        (conv): Sequential(
                          (0): ReplicationPad2d((1, 1, 1, 1))
                          (1): Conv2d(128, 128, kernel_size=(3, 3), stride=(1, 1))
                          (2): ReLU(inplace=True)
                        )
                        (relu): ReLU(inplace=True)
                      )
                    )
                    (_scale): Conv2d(128, 32, kernel_size=(1, 1), stride=(1, 1))
                    (_bias): Conv2d(128, 32, kernel_size=(1, 1), stride=(1, 1))
                  )
                )
                (1): BasicBlock(
                  (conv1): Sequential(
                    (0): ReplicationPad2d((1, 1, 1, 1))
                    (1): Conv2d(32, 32, kernel_size=(3, 3), stride=(1, 1), bias=False)
                  )
                  (bn1): GBufferNorm(
                    (_norm): GroupNorm(8, 32, eps=1e-05, affine=False)
                    (_conv): Sequential(
                      (0): ResBlock(
                        (conv): Sequential(
                          (0): ReplicationPad2d((1, 1, 1, 1))
                          (1): Conv2d(128, 128, kernel_size=(3, 3), stride=(1, 1))
                          (2): ReLU(inplace=True)
                        )
                        (relu): ReLU(inplace=True)
                      )
                      (1): ResBlock(
                        (conv): Sequential(
                          (0): ReplicationPad2d((1, 1, 1, 1))
                          (1): Conv2d(128, 128, kernel_size=(3, 3), stride=(1, 1))
                          (2): ReLU(inplace=True)
                        )
                        (relu): ReLU(inplace=True)
                      )
                      (2): ResBlock(
                        (conv): Sequential(
                          (0): ReplicationPad2d((1, 1, 1, 1))
                          (1): Conv2d(128, 128, kernel_size=(3, 3), stride=(1, 1))
                          (2): ReLU(inplace=True)
                        )
                        (relu): ReLU(inplace=True)
                      )
                    )
                    (_scale): Conv2d(128, 32, kernel_size=(1, 1), stride=(1, 1))
                    (_bias): Conv2d(128, 32, kernel_size=(1, 1), stride=(1, 1))
                  )
                  (relu): ReLU()
                  (conv2): Sequential(
                    (0): ReLU(inplace=True)
                    (1): Sequential(
                      (0): ReplicationPad2d((1, 1, 1, 1))
                      (1): Conv2d(32, 32, kernel_size=(3, 3), stride=(1, 1), bias=False)
                    )
                  )
                  (bn2): GBufferNorm(
                    (_norm): GroupNorm(8, 32, eps=1e-05, affine=False)
                    (_conv): Sequential(
                      (0): ResBlock(
                        (conv): Sequential(
                          (0): ReplicationPad2d((1, 1, 1, 1))
                          (1): Conv2d(128, 128, kernel_size=(3, 3), stride=(1, 1))
                          (2): ReLU(inplace=True)
                        )
                        (relu): ReLU(inplace=True)
                      )
                      (1): ResBlock(
                        (conv): Sequential(
                          (0): ReplicationPad2d((1, 1, 1, 1))
                          (1): Conv2d(128, 128, kernel_size=(3, 3), stride=(1, 1))
                          (2): ReLU(inplace=True)
                        )
                        (relu): ReLU(inplace=True)
                      )
                      (2): ResBlock(
                        (conv): Sequential(
                          (0): ReplicationPad2d((1, 1, 1, 1))
                          (1): Conv2d(128, 128, kernel_size=(3, 3), stride=(1, 1))
                          (2): ReLU(inplace=True)
                        )
                        (relu): ReLU(inplace=True)
                      )
                    )
                    (_scale): Conv2d(128, 32, kernel_size=(1, 1), stride=(1, 1))
                    (_bias): Conv2d(128, 32, kernel_size=(1, 1), stride=(1, 1))
                  )
                )
                (2): BasicBlock(
                  (conv1): Sequential(
                    (0): ReplicationPad2d((1, 1, 1, 1))
                    (1): Conv2d(32, 32, kernel_size=(3, 3), stride=(1, 1), bias=False)
                  )
                  (bn1): GBufferNorm(
                    (_norm): GroupNorm(8, 32, eps=1e-05, affine=False)
                    (_conv): Sequential(
                      (0): ResBlock(
                        (conv): Sequential(
                          (0): ReplicationPad2d((1, 1, 1, 1))
                          (1): Conv2d(128, 128, kernel_size=(3, 3), stride=(1, 1))
                          (2): ReLU(inplace=True)
                        )
                        (relu): ReLU(inplace=True)
                      )
                      (1): ResBlock(
                        (conv): Sequential(
                          (0): ReplicationPad2d((1, 1, 1, 1))
                          (1): Conv2d(128, 128, kernel_size=(3, 3), stride=(1, 1))
                          (2): ReLU(inplace=True)
                        )
                        (relu): ReLU(inplace=True)
                      )
                      (2): ResBlock(
                        (conv): Sequential(
                          (0): ReplicationPad2d((1, 1, 1, 1))
                          (1): Conv2d(128, 128, kernel_size=(3, 3), stride=(1, 1))
                          (2): ReLU(inplace=True)
                        )
                        (relu): ReLU(inplace=True)
                      )
                    )
                    (_scale): Conv2d(128, 32, kernel_size=(1, 1), stride=(1, 1))
                    (_bias): Conv2d(128, 32, kernel_size=(1, 1), stride=(1, 1))
                  )
                  (relu): ReLU()
                  (conv2): Sequential(
                    (0): ReLU(inplace=True)
                    (1): Sequential(
                      (0): ReplicationPad2d((1, 1, 1, 1))
                      (1): Conv2d(32, 32, kernel_size=(3, 3), stride=(1, 1), bias=False)
                    )
                  )
                  (bn2): GBufferNorm(
                    (_norm): GroupNorm(8, 32, eps=1e-05, affine=False)
                    (_conv): Sequential(
                      (0): ResBlock(
                        (conv): Sequential(
                          (0): ReplicationPad2d((1, 1, 1, 1))
                          (1): Conv2d(128, 128, kernel_size=(3, 3), stride=(1, 1))
                          (2): ReLU(inplace=True)
                        )
                        (relu): ReLU(inplace=True)
                      )
                      (1): ResBlock(
                        (conv): Sequential(
                          (0): ReplicationPad2d((1, 1, 1, 1))
                          (1): Conv2d(128, 128, kernel_size=(3, 3), stride=(1, 1))
                          (2): ReLU(inplace=True)
                        )
                        (relu): ReLU(inplace=True)
                      )
                      (2): ResBlock(
                        (conv): Sequential(
                          (0): ReplicationPad2d((1, 1, 1, 1))
                          (1): Conv2d(128, 128, kernel_size=(3, 3), stride=(1, 1))
                          (2): ReLU(inplace=True)
                        )
                        (relu): ReLU(inplace=True)
                      )
                    )
                    (_scale): Conv2d(128, 32, kernel_size=(1, 1), stride=(1, 1))
                    (_bias): Conv2d(128, 32, kernel_size=(1, 1), stride=(1, 1))
                  )
                )
                (3): BasicBlock(
                  (conv1): Sequential(
                    (0): ReplicationPad2d((1, 1, 1, 1))
                    (1): Conv2d(32, 32, kernel_size=(3, 3), stride=(1, 1), bias=False)
                  )
                  (bn1): GBufferNorm(
                    (_norm): GroupNorm(8, 32, eps=1e-05, affine=False)
                    (_conv): Sequential(
                      (0): ResBlock(
                        (conv): Sequential(
                          (0): ReplicationPad2d((1, 1, 1, 1))
                          (1): Conv2d(128, 128, kernel_size=(3, 3), stride=(1, 1))
                          (2): ReLU(inplace=True)
                        )
                        (relu): ReLU(inplace=True)
                      )
                      (1): ResBlock(
                        (conv): Sequential(
                          (0): ReplicationPad2d((1, 1, 1, 1))
                          (1): Conv2d(128, 128, kernel_size=(3, 3), stride=(1, 1))
                          (2): ReLU(inplace=True)
                        )
                        (relu): ReLU(inplace=True)
                      )
                      (2): ResBlock(
                        (conv): Sequential(
                          (0): ReplicationPad2d((1, 1, 1, 1))
                          (1): Conv2d(128, 128, kernel_size=(3, 3), stride=(1, 1))
                          (2): ReLU(inplace=True)
                        )
                        (relu): ReLU(inplace=True)
                      )
                    )
                    (_scale): Conv2d(128, 32, kernel_size=(1, 1), stride=(1, 1))
                    (_bias): Conv2d(128, 32, kernel_size=(1, 1), stride=(1, 1))
                  )
                  (relu): ReLU()
                  (conv2): Sequential(
                    (0): ReLU(inplace=True)
                    (1): Sequential(
                      (0): ReplicationPad2d((1, 1, 1, 1))
                      (1): Conv2d(32, 32, kernel_size=(3, 3), stride=(1, 1), bias=False)
                    )
                  )
                  (bn2): GBufferNorm(
                    (_norm): GroupNorm(8, 32, eps=1e-05, affine=False)
                    (_conv): Sequential(
                      (0): ResBlock(
                        (conv): Sequential(
                          (0): ReplicationPad2d((1, 1, 1, 1))
                          (1): Conv2d(128, 128, kernel_size=(3, 3), stride=(1, 1))
                          (2): ReLU(inplace=True)
                        )
                        (relu): ReLU(inplace=True)
                      )
                      (1): ResBlock(
                        (conv): Sequential(
                          (0): ReplicationPad2d((1, 1, 1, 1))
                          (1): Conv2d(128, 128, kernel_size=(3, 3), stride=(1, 1))
                          (2): ReLU(inplace=True)
                        )
                        (relu): ReLU(inplace=True)
                      )
                      (2): ResBlock(
                        (conv): Sequential(
                          (0): ReplicationPad2d((1, 1, 1, 1))
                          (1): Conv2d(128, 128, kernel_size=(3, 3), stride=(1, 1))
                          (2): ReLU(inplace=True)
                        )
                        (relu): ReLU(inplace=True)
                      )
                    )
                    (_scale): Conv2d(128, 32, kernel_size=(1, 1), stride=(1, 1))
                    (_bias): Conv2d(128, 32, kernel_size=(1, 1), stride=(1, 1))
                  )
                )
              )
              (2): Sequential(
                (0): BasicBlock(
                  (conv1): Sequential(
                    (0): ReplicationPad2d((1, 1, 1, 1))
                    (1): Conv2d(64, 64, kernel_size=(3, 3), stride=(1, 1), bias=False)
                  )
                  (bn1): GBufferNorm(
                    (_norm): GroupNorm(8, 64, eps=1e-05, affine=False)
                    (_conv): Sequential(
                      (0): ResBlock(
                        (conv): Sequential(
                          (0): ReplicationPad2d((1, 1, 1, 1))
                          (1): Conv2d(128, 128, kernel_size=(3, 3), stride=(1, 1))
                          (2): ReLU(inplace=True)
                        )
                        (relu): ReLU(inplace=True)
                      )
                      (1): ResBlock(
                        (conv): Sequential(
                          (0): ReplicationPad2d((1, 1, 1, 1))
                          (1): Conv2d(128, 128, kernel_size=(3, 3), stride=(1, 1))
                          (2): ReLU(inplace=True)
                        )
                        (relu): ReLU(inplace=True)
                      )
                      (2): ResBlock(
                        (conv): Sequential(
                          (0): ReplicationPad2d((1, 1, 1, 1))
                          (1): Conv2d(128, 128, kernel_size=(3, 3), stride=(1, 1))
                          (2): ReLU(inplace=True)
                        )
                        (relu): ReLU(inplace=True)
                      )
                    )
                    (_scale): Conv2d(128, 64, kernel_size=(1, 1), stride=(1, 1))
                    (_bias): Conv2d(128, 64, kernel_size=(1, 1), stride=(1, 1))
                  )
                  (relu): ReLU()
                  (conv2): Sequential(
                    (0): ReLU(inplace=True)
                    (1): Sequential(
                      (0): ReplicationPad2d((1, 1, 1, 1))
                      (1): Conv2d(64, 64, kernel_size=(3, 3), stride=(1, 1), bias=False)
                    )
                  )
                  (bn2): GBufferNorm(
                    (_norm): GroupNorm(8, 64, eps=1e-05, affine=False)
                    (_conv): Sequential(
                      (0): ResBlock(
                        (conv): Sequential(
                          (0): ReplicationPad2d((1, 1, 1, 1))
                          (1): Conv2d(128, 128, kernel_size=(3, 3), stride=(1, 1))
                          (2): ReLU(inplace=True)
                        )
                        (relu): ReLU(inplace=True)
                      )
                      (1): ResBlock(
                        (conv): Sequential(
                          (0): ReplicationPad2d((1, 1, 1, 1))
                          (1): Conv2d(128, 128, kernel_size=(3, 3), stride=(1, 1))
                          (2): ReLU(inplace=True)
                        )
                        (relu): ReLU(inplace=True)
                      )
                      (2): ResBlock(
                        (conv): Sequential(
                          (0): ReplicationPad2d((1, 1, 1, 1))
                          (1): Conv2d(128, 128, kernel_size=(3, 3), stride=(1, 1))
                          (2): ReLU(inplace=True)
                        )
                        (relu): ReLU(inplace=True)
                      )
                    )
                    (_scale): Conv2d(128, 64, kernel_size=(1, 1), stride=(1, 1))
                    (_bias): Conv2d(128, 64, kernel_size=(1, 1), stride=(1, 1))
                  )
                )
                (1): BasicBlock(
                  (conv1): Sequential(
                    (0): ReplicationPad2d((1, 1, 1, 1))
                    (1): Conv2d(64, 64, kernel_size=(3, 3), stride=(1, 1), bias=False)
                  )
                  (bn1): GBufferNorm(
                    (_norm): GroupNorm(8, 64, eps=1e-05, affine=False)
                    (_conv): Sequential(
                      (0): ResBlock(
                        (conv): Sequential(
                          (0): ReplicationPad2d((1, 1, 1, 1))
                          (1): Conv2d(128, 128, kernel_size=(3, 3), stride=(1, 1))
                          (2): ReLU(inplace=True)
                        )
                        (relu): ReLU(inplace=True)
                      )
                      (1): ResBlock(
                        (conv): Sequential(
                          (0): ReplicationPad2d((1, 1, 1, 1))
                          (1): Conv2d(128, 128, kernel_size=(3, 3), stride=(1, 1))
                          (2): ReLU(inplace=True)
                        )
                        (relu): ReLU(inplace=True)
                      )
                      (2): ResBlock(
                        (conv): Sequential(
                          (0): ReplicationPad2d((1, 1, 1, 1))
                          (1): Conv2d(128, 128, kernel_size=(3, 3), stride=(1, 1))
                          (2): ReLU(inplace=True)
                        )
                        (relu): ReLU(inplace=True)
                      )
                    )
                    (_scale): Conv2d(128, 64, kernel_size=(1, 1), stride=(1, 1))
                    (_bias): Conv2d(128, 64, kernel_size=(1, 1), stride=(1, 1))
                  )
                  (relu): ReLU()
                  (conv2): Sequential(
                    (0): ReLU(inplace=True)
                    (1): Sequential(
                      (0): ReplicationPad2d((1, 1, 1, 1))
                      (1): Conv2d(64, 64, kernel_size=(3, 3), stride=(1, 1), bias=False)
                    )
                  )
                  (bn2): GBufferNorm(
                    (_norm): GroupNorm(8, 64, eps=1e-05, affine=False)
                    (_conv): Sequential(
                      (0): ResBlock(
                        (conv): Sequential(
                          (0): ReplicationPad2d((1, 1, 1, 1))
                          (1): Conv2d(128, 128, kernel_size=(3, 3), stride=(1, 1))
                          (2): ReLU(inplace=True)
                        )
                        (relu): ReLU(inplace=True)
                      )
                      (1): ResBlock(
                        (conv): Sequential(
                          (0): ReplicationPad2d((1, 1, 1, 1))
                          (1): Conv2d(128, 128, kernel_size=(3, 3), stride=(1, 1))
                          (2): ReLU(inplace=True)
                        )
                        (relu): ReLU(inplace=True)
                      )
                      (2): ResBlock(
                        (conv): Sequential(
                          (0): ReplicationPad2d((1, 1, 1, 1))
                          (1): Conv2d(128, 128, kernel_size=(3, 3), stride=(1, 1))
                          (2): ReLU(inplace=True)
                        )
                        (relu): ReLU(inplace=True)
                      )
                    )
                    (_scale): Conv2d(128, 64, kernel_size=(1, 1), stride=(1, 1))
                    (_bias): Conv2d(128, 64, kernel_size=(1, 1), stride=(1, 1))
                  )
                )
                (2): BasicBlock(
                  (conv1): Sequential(
                    (0): ReplicationPad2d((1, 1, 1, 1))
                    (1): Conv2d(64, 64, kernel_size=(3, 3), stride=(1, 1), bias=False)
                  )
                  (bn1): GBufferNorm(
                    (_norm): GroupNorm(8, 64, eps=1e-05, affine=False)
                    (_conv): Sequential(
                      (0): ResBlock(
                        (conv): Sequential(
                          (0): ReplicationPad2d((1, 1, 1, 1))
                          (1): Conv2d(128, 128, kernel_size=(3, 3), stride=(1, 1))
                          (2): ReLU(inplace=True)
                        )
                        (relu): ReLU(inplace=True)
                      )
                      (1): ResBlock(
                        (conv): Sequential(
                          (0): ReplicationPad2d((1, 1, 1, 1))
                          (1): Conv2d(128, 128, kernel_size=(3, 3), stride=(1, 1))
                          (2): ReLU(inplace=True)
                        )
                        (relu): ReLU(inplace=True)
                      )
                      (2): ResBlock(
                        (conv): Sequential(
                          (0): ReplicationPad2d((1, 1, 1, 1))
                          (1): Conv2d(128, 128, kernel_size=(3, 3), stride=(1, 1))
                          (2): ReLU(inplace=True)
                        )
                        (relu): ReLU(inplace=True)
                      )
                    )
                    (_scale): Conv2d(128, 64, kernel_size=(1, 1), stride=(1, 1))
                    (_bias): Conv2d(128, 64, kernel_size=(1, 1), stride=(1, 1))
                  )
                  (relu): ReLU()
                  (conv2): Sequential(
                    (0): ReLU(inplace=True)
                    (1): Sequential(
                      (0): ReplicationPad2d((1, 1, 1, 1))
                      (1): Conv2d(64, 64, kernel_size=(3, 3), stride=(1, 1), bias=False)
                    )
                  )
                  (bn2): GBufferNorm(
                    (_norm): GroupNorm(8, 64, eps=1e-05, affine=False)
                    (_conv): Sequential(
                      (0): ResBlock(
                        (conv): Sequential(
                          (0): ReplicationPad2d((1, 1, 1, 1))
                          (1): Conv2d(128, 128, kernel_size=(3, 3), stride=(1, 1))
                          (2): ReLU(inplace=True)
                        )
                        (relu): ReLU(inplace=True)
                      )
                      (1): ResBlock(
                        (conv): Sequential(
                          (0): ReplicationPad2d((1, 1, 1, 1))
                          (1): Conv2d(128, 128, kernel_size=(3, 3), stride=(1, 1))
                          (2): ReLU(inplace=True)
                        )
                        (relu): ReLU(inplace=True)
                      )
                      (2): ResBlock(
                        (conv): Sequential(
                          (0): ReplicationPad2d((1, 1, 1, 1))
                          (1): Conv2d(128, 128, kernel_size=(3, 3), stride=(1, 1))
                          (2): ReLU(inplace=True)
                        )
                        (relu): ReLU(inplace=True)
                      )
                    )
                    (_scale): Conv2d(128, 64, kernel_size=(1, 1), stride=(1, 1))
                    (_bias): Conv2d(128, 64, kernel_size=(1, 1), stride=(1, 1))
                  )
                )
                (3): BasicBlock(
                  (conv1): Sequential(
                    (0): ReplicationPad2d((1, 1, 1, 1))
                    (1): Conv2d(64, 64, kernel_size=(3, 3), stride=(1, 1), bias=False)
                  )
                  (bn1): GBufferNorm(
                    (_norm): GroupNorm(8, 64, eps=1e-05, affine=False)
                    (_conv): Sequential(
                      (0): ResBlock(
                        (conv): Sequential(
                          (0): ReplicationPad2d((1, 1, 1, 1))
                          (1): Conv2d(128, 128, kernel_size=(3, 3), stride=(1, 1))
                          (2): ReLU(inplace=True)
                        )
                        (relu): ReLU(inplace=True)
                      )
                      (1): ResBlock(
                        (conv): Sequential(
                          (0): ReplicationPad2d((1, 1, 1, 1))
                          (1): Conv2d(128, 128, kernel_size=(3, 3), stride=(1, 1))
                          (2): ReLU(inplace=True)
                        )
                        (relu): ReLU(inplace=True)
                      )
                      (2): ResBlock(
                        (conv): Sequential(
                          (0): ReplicationPad2d((1, 1, 1, 1))
                          (1): Conv2d(128, 128, kernel_size=(3, 3), stride=(1, 1))
                          (2): ReLU(inplace=True)
                        )
                        (relu): ReLU(inplace=True)
                      )
                    )
                    (_scale): Conv2d(128, 64, kernel_size=(1, 1), stride=(1, 1))
                    (_bias): Conv2d(128, 64, kernel_size=(1, 1), stride=(1, 1))
                  )
                  (relu): ReLU()
                  (conv2): Sequential(
                    (0): ReLU(inplace=True)
                    (1): Sequential(
                      (0): ReplicationPad2d((1, 1, 1, 1))
                      (1): Conv2d(64, 64, kernel_size=(3, 3), stride=(1, 1), bias=False)
                    )
                  )
                  (bn2): GBufferNorm(
                    (_norm): GroupNorm(8, 64, eps=1e-05, affine=False)
                    (_conv): Sequential(
                      (0): ResBlock(
                        (conv): Sequential(
                          (0): ReplicationPad2d((1, 1, 1, 1))
                          (1): Conv2d(128, 128, kernel_size=(3, 3), stride=(1, 1))
                          (2): ReLU(inplace=True)
                        )
                        (relu): ReLU(inplace=True)
                      )
                      (1): ResBlock(
                        (conv): Sequential(
                          (0): ReplicationPad2d((1, 1, 1, 1))
                          (1): Conv2d(128, 128, kernel_size=(3, 3), stride=(1, 1))
                          (2): ReLU(inplace=True)
                        )
                        (relu): ReLU(inplace=True)
                      )
                      (2): ResBlock(
                        (conv): Sequential(
                          (0): ReplicationPad2d((1, 1, 1, 1))
                          (1): Conv2d(128, 128, kernel_size=(3, 3), stride=(1, 1))
                          (2): ReLU(inplace=True)
                        )
                        (relu): ReLU(inplace=True)
                      )
                    )
                    (_scale): Conv2d(128, 64, kernel_size=(1, 1), stride=(1, 1))
                    (_bias): Conv2d(128, 64, kernel_size=(1, 1), stride=(1, 1))
                  )
                )
              )
              (3): Sequential(
                (0): BasicBlock(
                  (conv1): Sequential(
                    (0): ReplicationPad2d((1, 1, 1, 1))
                    (1): Conv2d(128, 128, kernel_size=(3, 3), stride=(1, 1), bias=False)
                  )
                  (bn1): GBufferNorm(
                    (_norm): GroupNorm(8, 128, eps=1e-05, affine=False)
                    (_conv): Sequential(
                      (0): ResBlock(
                        (conv): Sequential(
                          (0): ReplicationPad2d((1, 1, 1, 1))
                          (1): Conv2d(128, 128, kernel_size=(3, 3), stride=(1, 1))
                          (2): ReLU(inplace=True)
                        )
                        (relu): ReLU(inplace=True)
                      )
                      (1): ResBlock(
                        (conv): Sequential(
                          (0): ReplicationPad2d((1, 1, 1, 1))
                          (1): Conv2d(128, 128, kernel_size=(3, 3), stride=(1, 1))
                          (2): ReLU(inplace=True)
                        )
                        (relu): ReLU(inplace=True)
                      )
                      (2): ResBlock(
                        (conv): Sequential(
                          (0): ReplicationPad2d((1, 1, 1, 1))
                          (1): Conv2d(128, 128, kernel_size=(3, 3), stride=(1, 1))
                          (2): ReLU(inplace=True)
                        )
                        (relu): ReLU(inplace=True)
                      )
                    )
                    (_scale): Conv2d(128, 128, kernel_size=(1, 1), stride=(1, 1))
                    (_bias): Conv2d(128, 128, kernel_size=(1, 1), stride=(1, 1))
                  )
                  (relu): ReLU()
                  (conv2): Sequential(
                    (0): ReLU(inplace=True)
                    (1): Sequential(
                      (0): ReplicationPad2d((1, 1, 1, 1))
                      (1): Conv2d(128, 128, kernel_size=(3, 3), stride=(1, 1), bias=False)
                    )
                  )
                  (bn2): GBufferNorm(
                    (_norm): GroupNorm(8, 128, eps=1e-05, affine=False)
                    (_conv): Sequential(
                      (0): ResBlock(
                        (conv): Sequential(
                          (0): ReplicationPad2d((1, 1, 1, 1))
                          (1): Conv2d(128, 128, kernel_size=(3, 3), stride=(1, 1))
                          (2): ReLU(inplace=True)
                        )
                        (relu): ReLU(inplace=True)
                      )
                      (1): ResBlock(
                        (conv): Sequential(
                          (0): ReplicationPad2d((1, 1, 1, 1))
                          (1): Conv2d(128, 128, kernel_size=(3, 3), stride=(1, 1))
                          (2): ReLU(inplace=True)
                        )
                        (relu): ReLU(inplace=True)
                      )
                      (2): ResBlock(
                        (conv): Sequential(
                          (0): ReplicationPad2d((1, 1, 1, 1))
                          (1): Conv2d(128, 128, kernel_size=(3, 3), stride=(1, 1))
                          (2): ReLU(inplace=True)
                        )
                        (relu): ReLU(inplace=True)
                      )
                    )
                    (_scale): Conv2d(128, 128, kernel_size=(1, 1), stride=(1, 1))
                    (_bias): Conv2d(128, 128, kernel_size=(1, 1), stride=(1, 1))
                  )
                )
                (1): BasicBlock(
                  (conv1): Sequential(
                    (0): ReplicationPad2d((1, 1, 1, 1))
                    (1): Conv2d(128, 128, kernel_size=(3, 3), stride=(1, 1), bias=False)
                  )
                  (bn1): GBufferNorm(
                    (_norm): GroupNorm(8, 128, eps=1e-05, affine=False)
                    (_conv): Sequential(
                      (0): ResBlock(
                        (conv): Sequential(
                          (0): ReplicationPad2d((1, 1, 1, 1))
                          (1): Conv2d(128, 128, kernel_size=(3, 3), stride=(1, 1))
                          (2): ReLU(inplace=True)
                        )
                        (relu): ReLU(inplace=True)
                      )
                      (1): ResBlock(
                        (conv): Sequential(
                          (0): ReplicationPad2d((1, 1, 1, 1))
                          (1): Conv2d(128, 128, kernel_size=(3, 3), stride=(1, 1))
                          (2): ReLU(inplace=True)
                        )
                        (relu): ReLU(inplace=True)
                      )
                      (2): ResBlock(
                        (conv): Sequential(
                          (0): ReplicationPad2d((1, 1, 1, 1))
                          (1): Conv2d(128, 128, kernel_size=(3, 3), stride=(1, 1))
                          (2): ReLU(inplace=True)
                        )
                        (relu): ReLU(inplace=True)
                      )
                    )
                    (_scale): Conv2d(128, 128, kernel_size=(1, 1), stride=(1, 1))
                    (_bias): Conv2d(128, 128, kernel_size=(1, 1), stride=(1, 1))
                  )
                  (relu): ReLU()
                  (conv2): Sequential(
                    (0): ReLU(inplace=True)
                    (1): Sequential(
                      (0): ReplicationPad2d((1, 1, 1, 1))
                      (1): Conv2d(128, 128, kernel_size=(3, 3), stride=(1, 1), bias=False)
                    )
                  )
                  (bn2): GBufferNorm(
                    (_norm): GroupNorm(8, 128, eps=1e-05, affine=False)
                    (_conv): Sequential(
                      (0): ResBlock(
                        (conv): Sequential(
                          (0): ReplicationPad2d((1, 1, 1, 1))
                          (1): Conv2d(128, 128, kernel_size=(3, 3), stride=(1, 1))
                          (2): ReLU(inplace=True)
                        )
                        (relu): ReLU(inplace=True)
                      )
                      (1): ResBlock(
                        (conv): Sequential(
                          (0): ReplicationPad2d((1, 1, 1, 1))
                          (1): Conv2d(128, 128, kernel_size=(3, 3), stride=(1, 1))
                          (2): ReLU(inplace=True)
                        )
                        (relu): ReLU(inplace=True)
                      )
                      (2): ResBlock(
                        (conv): Sequential(
                          (0): ReplicationPad2d((1, 1, 1, 1))
                          (1): Conv2d(128, 128, kernel_size=(3, 3), stride=(1, 1))
                          (2): ReLU(inplace=True)
                        )
                        (relu): ReLU(inplace=True)
                      )
                    )
                    (_scale): Conv2d(128, 128, kernel_size=(1, 1), stride=(1, 1))
                    (_bias): Conv2d(128, 128, kernel_size=(1, 1), stride=(1, 1))
                  )
                )
                (2): BasicBlock(
                  (conv1): Sequential(
                    (0): ReplicationPad2d((1, 1, 1, 1))
                    (1): Conv2d(128, 128, kernel_size=(3, 3), stride=(1, 1), bias=False)
                  )
                  (bn1): GBufferNorm(
                    (_norm): GroupNorm(8, 128, eps=1e-05, affine=False)
                    (_conv): Sequential(
                      (0): ResBlock(
                        (conv): Sequential(
                          (0): ReplicationPad2d((1, 1, 1, 1))
                          (1): Conv2d(128, 128, kernel_size=(3, 3), stride=(1, 1))
                          (2): ReLU(inplace=True)
                        )
                        (relu): ReLU(inplace=True)
                      )
                      (1): ResBlock(
                        (conv): Sequential(
                          (0): ReplicationPad2d((1, 1, 1, 1))
                          (1): Conv2d(128, 128, kernel_size=(3, 3), stride=(1, 1))
                          (2): ReLU(inplace=True)
                        )
                        (relu): ReLU(inplace=True)
                      )
                      (2): ResBlock(
                        (conv): Sequential(
                          (0): ReplicationPad2d((1, 1, 1, 1))
                          (1): Conv2d(128, 128, kernel_size=(3, 3), stride=(1, 1))
                          (2): ReLU(inplace=True)
                        )
                        (relu): ReLU(inplace=True)
                      )
                    )
                    (_scale): Conv2d(128, 128, kernel_size=(1, 1), stride=(1, 1))
                    (_bias): Conv2d(128, 128, kernel_size=(1, 1), stride=(1, 1))
                  )
                  (relu): ReLU()
                  (conv2): Sequential(
                    (0): ReLU(inplace=True)
                    (1): Sequential(
                      (0): ReplicationPad2d((1, 1, 1, 1))
                      (1): Conv2d(128, 128, kernel_size=(3, 3), stride=(1, 1), bias=False)
                    )
                  )
                  (bn2): GBufferNorm(
                    (_norm): GroupNorm(8, 128, eps=1e-05, affine=False)
                    (_conv): Sequential(
                      (0): ResBlock(
                        (conv): Sequential(
                          (0): ReplicationPad2d((1, 1, 1, 1))
                          (1): Conv2d(128, 128, kernel_size=(3, 3), stride=(1, 1))
                          (2): ReLU(inplace=True)
                        )
                        (relu): ReLU(inplace=True)
                      )
                      (1): ResBlock(
                        (conv): Sequential(
                          (0): ReplicationPad2d((1, 1, 1, 1))
                          (1): Conv2d(128, 128, kernel_size=(3, 3), stride=(1, 1))
                          (2): ReLU(inplace=True)
                        )
                        (relu): ReLU(inplace=True)
                      )
                      (2): ResBlock(
                        (conv): Sequential(
                          (0): ReplicationPad2d((1, 1, 1, 1))
                          (1): Conv2d(128, 128, kernel_size=(3, 3), stride=(1, 1))
                          (2): ReLU(inplace=True)
                        )
                        (relu): ReLU(inplace=True)
                      )
                    )
                    (_scale): Conv2d(128, 128, kernel_size=(1, 1), stride=(1, 1))
                    (_bias): Conv2d(128, 128, kernel_size=(1, 1), stride=(1, 1))
                  )
                )
                (3): BasicBlock(
                  (conv1): Sequential(
                    (0): ReplicationPad2d((1, 1, 1, 1))
                    (1): Conv2d(128, 128, kernel_size=(3, 3), stride=(1, 1), bias=False)
                  )
                  (bn1): GBufferNorm(
                    (_norm): GroupNorm(8, 128, eps=1e-05, affine=False)
                    (_conv): Sequential(
                      (0): ResBlock(
                        (conv): Sequential(
                          (0): ReplicationPad2d((1, 1, 1, 1))
                          (1): Conv2d(128, 128, kernel_size=(3, 3), stride=(1, 1))
                          (2): ReLU(inplace=True)
                        )
                        (relu): ReLU(inplace=True)
                      )
                      (1): ResBlock(
                        (conv): Sequential(
                          (0): ReplicationPad2d((1, 1, 1, 1))
                          (1): Conv2d(128, 128, kernel_size=(3, 3), stride=(1, 1))
                          (2): ReLU(inplace=True)
                        )
                        (relu): ReLU(inplace=True)
                      )
                      (2): ResBlock(
                        (conv): Sequential(
                          (0): ReplicationPad2d((1, 1, 1, 1))
                          (1): Conv2d(128, 128, kernel_size=(3, 3), stride=(1, 1))
                          (2): ReLU(inplace=True)
                        )
                        (relu): ReLU(inplace=True)
                      )
                    )
                    (_scale): Conv2d(128, 128, kernel_size=(1, 1), stride=(1, 1))
                    (_bias): Conv2d(128, 128, kernel_size=(1, 1), stride=(1, 1))
                  )
                  (relu): ReLU()
                  (conv2): Sequential(
                    (0): ReLU(inplace=True)
                    (1): Sequential(
                      (0): ReplicationPad2d((1, 1, 1, 1))
                      (1): Conv2d(128, 128, kernel_size=(3, 3), stride=(1, 1), bias=False)
                    )
                  )
                  (bn2): GBufferNorm(
                    (_norm): GroupNorm(8, 128, eps=1e-05, affine=False)
                    (_conv): Sequential(
                      (0): ResBlock(
                        (conv): Sequential(
                          (0): ReplicationPad2d((1, 1, 1, 1))
                          (1): Conv2d(128, 128, kernel_size=(3, 3), stride=(1, 1))
                          (2): ReLU(inplace=True)
                        )
                        (relu): ReLU(inplace=True)
                      )
                      (1): ResBlock(
                        (conv): Sequential(
                          (0): ReplicationPad2d((1, 1, 1, 1))
                          (1): Conv2d(128, 128, kernel_size=(3, 3), stride=(1, 1))
                          (2): ReLU(inplace=True)
                        )
                        (relu): ReLU(inplace=True)
                      )
                      (2): ResBlock(
                        (conv): Sequential(
                          (0): ReplicationPad2d((1, 1, 1, 1))
                          (1): Conv2d(128, 128, kernel_size=(3, 3), stride=(1, 1))
                          (2): ReLU(inplace=True)
                        )
                        (relu): ReLU(inplace=True)
                      )
                    )
                    (_scale): Conv2d(128, 128, kernel_size=(1, 1), stride=(1, 1))
                    (_bias): Conv2d(128, 128, kernel_size=(1, 1), stride=(1, 1))
                  )
                )
              )
            )
            (fuse_layers): ModuleList(
              (0): ModuleList(
                (0): None
                (1): Sequential(
                  (0): Conv2d(32, 16, kernel_size=(1, 1), stride=(1, 1), bias=False)
                  (1): GroupNorm(8, 16, eps=1e-05, affine=True)
                )
                (2): Sequential(
                  (0): Conv2d(64, 16, kernel_size=(1, 1), stride=(1, 1), bias=False)
                  (1): GroupNorm(8, 16, eps=1e-05, affine=True)
                )
                (3): Sequential(
                  (0): Conv2d(128, 16, kernel_size=(1, 1), stride=(1, 1), bias=False)
                  (1): GroupNorm(8, 16, eps=1e-05, affine=True)
                )
              )
              (1): ModuleList(
                (0): Sequential(
                  (0): Sequential(
                    (0): ReplicationPad2d((1, 1, 1, 1))
                    (1): Conv2d(16, 32, kernel_size=(3, 3), stride=(2, 2), bias=False)
                    (2): GroupNorm(8, 32, eps=1e-05, affine=True)
                  )
                )
                (1): None
                (2): Sequential(
                  (0): Conv2d(64, 32, kernel_size=(1, 1), stride=(1, 1), bias=False)
                  (1): GroupNorm(8, 32, eps=1e-05, affine=True)
                )
                (3): Sequential(
                  (0): Conv2d(128, 32, kernel_size=(1, 1), stride=(1, 1), bias=False)
                  (1): GroupNorm(8, 32, eps=1e-05, affine=True)
                )
              )
              (2): ModuleList(
                (0): Sequential(
                  (0): Sequential(
                    (0): ReplicationPad2d((1, 1, 1, 1))
                    (1): Conv2d(16, 16, kernel_size=(3, 3), stride=(2, 2), bias=False)
                    (2): GroupNorm(8, 16, eps=1e-05, affine=True)
                    (3): ReLU()
                  )
                  (1): Sequential(
                    (0): ReplicationPad2d((1, 1, 1, 1))
                    (1): Conv2d(16, 64, kernel_size=(3, 3), stride=(2, 2), bias=False)
                    (2): GroupNorm(8, 64, eps=1e-05, affine=True)
                  )
                )
                (1): Sequential(
                  (0): Sequential(
                    (0): ReplicationPad2d((1, 1, 1, 1))
                    (1): Conv2d(32, 64, kernel_size=(3, 3), stride=(2, 2), bias=False)
                    (2): GroupNorm(8, 64, eps=1e-05, affine=True)
                  )
                )
                (2): None
                (3): Sequential(
                  (0): Conv2d(128, 64, kernel_size=(1, 1), stride=(1, 1), bias=False)
                  (1): GroupNorm(8, 64, eps=1e-05, affine=True)
                )
              )
              (3): ModuleList(
                (0): Sequential(
                  (0): Sequential(
                    (0): ReplicationPad2d((1, 1, 1, 1))
                    (1): Conv2d(16, 16, kernel_size=(3, 3), stride=(2, 2), bias=False)
                    (2): GroupNorm(8, 16, eps=1e-05, affine=True)
                    (3): ReLU()
                  )
                  (1): Sequential(
                    (0): ReplicationPad2d((1, 1, 1, 1))
                    (1): Conv2d(16, 16, kernel_size=(3, 3), stride=(2, 2), bias=False)
                    (2): GroupNorm(8, 16, eps=1e-05, affine=True)
                    (3): ReLU()
                  )
                  (2): Sequential(
                    (0): ReplicationPad2d((1, 1, 1, 1))
                    (1): Conv2d(16, 128, kernel_size=(3, 3), stride=(2, 2), bias=False)
                    (2): GroupNorm(8, 128, eps=1e-05, affine=True)
                  )
                )
                (1): Sequential(
                  (0): Sequential(
                    (0): ReplicationPad2d((1, 1, 1, 1))
                    (1): Conv2d(32, 32, kernel_size=(3, 3), stride=(2, 2), bias=False)
                    (2): GroupNorm(8, 32, eps=1e-05, affine=True)
                    (3): ReLU()
                  )
                  (1): Sequential(
                    (0): ReplicationPad2d((1, 1, 1, 1))
                    (1): Conv2d(32, 128, kernel_size=(3, 3), stride=(2, 2), bias=False)
                    (2): GroupNorm(8, 128, eps=1e-05, affine=True)
                  )
                )
                (2): Sequential(
                  (0): Sequential(
                    (0): ReplicationPad2d((1, 1, 1, 1))
                    (1): Conv2d(64, 128, kernel_size=(3, 3), stride=(2, 2), bias=False)
                    (2): GroupNorm(8, 128, eps=1e-05, affine=True)
                  )
                )
                (3): None
              )
            )
            (relu): ReLU()
          )
        )
      )
      (up_layers): ModuleList(
        (0): Sequential(
          (0): ReplicationPad2d((1, 1, 1, 1))
          (1): Conv2d(192, 64, kernel_size=(3, 3), stride=(1, 1))
          (2): GroupNorm(8, 64, eps=1e-05, affine=True)
          (3): LeakyReLU(negative_slope=0.2, inplace=True)
        )
        (1): Sequential(
          (0): ReplicationPad2d((1, 1, 1, 1))
          (1): Conv2d(96, 32, kernel_size=(3, 3), stride=(1, 1))
          (2): GroupNorm(8, 32, eps=1e-05, affine=True)
          (3): LeakyReLU(negative_slope=0.2, inplace=True)
        )
        (2): Sequential(
          (0): ReplicationPad2d((1, 1, 1, 1))
          (1): Conv2d(48, 16, kernel_size=(3, 3), stride=(1, 1))
          (2): GroupNorm(8, 16, eps=1e-05, affine=True)
          (3): LeakyReLU(negative_slope=0.2, inplace=True)
          (4): ReplicationPad2d((1, 1, 1, 1))
          (5): Conv2d(16, 3, kernel_size=(3, 3), stride=(1, 1))
        )
      )
    )
  )
)
2022-04-09 02:50:01,761   learning rate : 0.0001
2022-04-09 02:50:01,762   clip grad norm: 1000.0
2022-04-09 02:50:01,762   clip_weights  : -1.0
2022-04-09 02:50:01,762   optimizer     : adam
2022-04-09 02:50:01,762     ams         : False
2022-04-09 02:50:01,762     beta        : 0.9
2022-04-09 02:50:01,762     beta2       : 0.999
…
